data/models/20240311121351_episode_578_obs_T__comb_F__solo_T/model.pt (torch, 100091 bytes, 8 tensors)

conv1.weight f4 [16, 7, 3, 3]
00000000: 6bb6 17bd da44 5bbc ba01 533d 742b 713d
00000010: 2e41 9ebd 35fd 01bc 6ddb 1abd adaf 77bd
00000020: b0a0 3e3d 083f b5bd 8c36 abbc f591 af3c
00000030: 22fd 9d3d 51cc bdbe 7cfa 84bd c901 923c
00000040: 3719 50be ec71 823d 4f71 d1bd 74e6 f73b
00000050: 1207 7c3d 169d bb3d 8f60 e5bd 9754 713d
00000060: bd67 b3bc ec9c e43c 9937 063e 2ad6 833c
00000070: 1640 d73c 9d4c 6e3d d3e8 8e3d a5cf c5bd
00000080: cbd7 38be a3ff 01be 361d 52be e5d1 93bc
00000090: 342c 15bb 6464 c7bd 531e 23be 3623 0e3e
000000a0: 6f2d a6be 7782 88bd d82d d4bd 0d59 a9be
000000b0: b802 d1bc f975 8a3d 2e61 573e 203d 5fbd
000000c0: e6df 763e 73ed 833e 5339 f0bd 3e18 de3d
000000d0: 4b34 aabd 0e2f c6bd a820 163e c1bb 0a3f
000000e0: 4c3d 863e 447f a0bd 0cd2 e33e 6449 7b3d
000000f0: 2fe4 773e b48b db3e eeda 7e3d e3bc 333c
00000100: 6889 84bc 663f 98bd 6175 f8bd 393d 32be
00000110: b058 d4bc bc75 9e3d a204 da3d bc94 c23c
00000120: 29c8 f23c bcfd 0b3d c421 96bd 5691 d7bd
00000130: ed37 8bbe 2bb7 b2bd 6c5b 4e3d 6170 c23d
00000140: 7089 2d3d 8b5f a7bd c06f 8d3c 6e27 bebd
00000150: 9fd3 3ebd 1128 acbd ac79 e83d 99a6 dc3d
00000160: bf21 123e 12ef 7e3d 1d40 fbbd c262 353d
00000170: b073 dcbd 1630 43be f5e1 bbbe e1f7 26be
00000180: 5dda 983d 6aba 9a3d 980c 983d d2d5 b43c
00000190: 6b38 0c3c 755f 05be 5465 63bd a477 d2be
000001a0: 472a 4c3d 154a 583d af6a 583b 5866 b03c
000001b0: 9dae 0bbd da7f 76be 8415 c0be 497b 72be
000001c0: 08f6 75be 8ae3 1abd 45c8 c8bd 44a9 03be
000001d0: 36a0 9ebd 111f 2fbe 8e6d 743e f6aa 8abe
000001e0: debc df3e e0e9 053f 7d97 de3e 48c2 34bd
000001f0: 521c 2bbe 6775 17bd 0694 b6bd 3b34 863d
00000200: 3f99 9a3d 7942 03bd 7f80 50bc f611 9f3c
00000210: c012 20be bc46 d03d 7421 ac3d 07a1 903d
00000220: e72f 323d 9200 0cbe 46bf 03bd 24f0 fb3d
00000230: 2265 f83d 295c 7b3d e057 cd3d 0945 113e
00000240: 39fc 5cbe 77e2 783d b3ae 5dbe 6666 c43d
00000250: ecd7 ccbe a86d 2bbd 7f8f 38be 253b a9bd
00000260: 46c3 b8bd c14c 893e 414c 413d 3a66 733c
00000270: e361 8e3e 9910 c33d b614 dc3d 1550 853e
00000280: bf6f 5e3e 7735 29be 5b0a 18bd afbf 0dbe
00000290: d448 f53d e439 023e 2278 cb3e f5ec 3e3d
000002a0: f85f aebe bd05 fdbd e707 923d 355d 7cbe
000002b0: 71e4 163e ba42 85bc 47d2 e33c 6150 733e
000002c0: 021c af3d 9cb4 83be 2a92 3c3e 9751 a83c
000002d0: 5d52 13be 2c84 aebd 4176 103e f2ac 953d
000002e0: 022d b7bd e490 7c3e 6f2a e5bd 986b a93b
000002f0: 4aa0 173e 34ac bc3d ccd1 7ebd 96f7 e9bc
00000300: c071 b6bd c131 b9bd 2cc6 75bb 6a0e 113d
00000310: 3a06 e5bc 6721 3cbc cd43 d13d c222 a6ba
00000320: f28b 893d d364 fabd df81 3cbe 59a8 623d
00000330: daed bbbd 199e 37be 2e85 58bd 16b5 dd3d
00000340: fa27 8a3d 833a b13e a53f 843e bb91 9e3e
00000350: dc0f 9a3c a4e3 0f3d 0a0f d03d 15cf 483e
00000360: fa44 ad3c 5fc7 f7bd e7f8 343d 332a 05bf
00000370: 2e4d d7be 89e8 eebc 7bb9 b53b c10e 91be
00000380: e6ae 36be fa4b 29bd ca8e 1a3e aa91 74be
00000390: b855 dbbe 52dd 26be 111c 90be 3c48 573d
000003a0: 66a8 5dbe 45c6 1fbe c2d2 95be bb9d 42bf
000003b0: dea1 cdbd 0ae6 bdbe fb8f d7be 14aa 1fbf
000003c0: 2f1a 02be 8e5d 9fbe 3123 88be e9c5 63be
000003d0: 480b 22bf 4582 18bd 5086 04bd 9516 d0be
000003e0: 0e76 e8bd fc5e 643e cf74 1e3e 1079 b8be
000003f0: 8fe5 2e3e 9abe 31bc 596f bbbc 8f2b b2be
-0.0370392 -0.013383115 0.05151532 0.05887933 -0.07727276 -0.007933904 -0.037806917 -0.06047027
0.046539962 -0.08849913 -0.020900033 0.021431902 0.07714297 -0.37069944 -0.064930886 0.017823117
-0.20322119 0.06369385 -0.1022669 0.007565314 0.06153018 0.09160821 -0.11200058 0.05891856
-0.021900052 0.027906857 0.13107146 0.016093332 0.026275676 0.058178533 0.069780014 -0.09658746
-0.18051068 -0.12695174 -0.20518956 -0.018044421 -0.0022761943 -0.09735945 -0.15929537 0.1388062
-0.32456538 -0.06665509 -0.103603065 -0.33075753 -0.025513992 0.06760783 0.21033165 -0.054501653
0.24108848 0.25767097 -0.11729684 0.108444676 -0.08310755 -0.09676944 0.14660895 0.5419274
0.2621864 -0.07836774 0.4449619 0.061349288 0.24208139 0.42880023 0.062220506 0.010970327
-0.016178802 -0.07433967 -0.12131763 -0.17406167 -0.025921196 0.077373 0.10645415 0.023752563
0.02963646 0.034177527 -0.07330659 -0.105257675 -0.27191105 -0.08726343 0.050380155 0.09494091
0.0423674 -0.0817252 0.0172652 -0.09284864 -0.046588536 -0.084060796 0.11351332 0.107739635
0.14270686 0.062239714 -0.12268088 0.044283636 -0.10764253 -0.19061312 -0.3669583 -0.16305496
0.074635245 0.07555087 0.07424277 0.022074614 0.008558373 -0.13024695 -0.055516556 -0.41106904
0.049845006 0.052805025 0.0033022573 0.021533176 -0.03410207 -0.24072209 -0.37516415 -0.23679842
-0.24019635 -0.037814654 -0.098038234 -0.12857538 -0.077454016 -0.17101695 0.23869917 -0.27083558
0.43698782 0.5230999 0.4347495 -0.044130594 -0.16710022 -0.036977198 -0.08914952 0.06552931
0.075487606 -0.032045815 -0.012725948 0.019417744 -0.15632153 0.101697415 0.08404818 0.070619635
0.043502714 -0.13672093 -0.032164834 0.123016626 0.121286646 0.061367188 0.100265265 0.14186491
-0.2158059 0.06076285 -0.21648674 0.095898435 -0.40008485 -0.041852623 -0.1802349 -0.08263234
-0.090216205 0.2681637 0.047191862 0.014855916 0.27809057 0.0952465 0.10746138 0.2603766
0.21722315 -0.16524301 -0.03711925 -0.13842653 0.119767815 0.12717396 0.39740092 0.0466127
-0.34057593 -0.1235461 0.071304135 -0.2464493 0.14735581 -0.01626717 0.027810229 0.23761131
0.08550264 -0.25723732 0.18415132 0.020546718 -0.14386888 -0.085213035 0.1410761 0.07308377
-0.089441314 0.24664646 -0.11189734 0.005170297 0.14807239 0.09212533 -0.062211797 -0.028560441
-0.08908415 -0.09042693 -0.0037502153 0.035414137 -0.02795707 -0.011482573 0.1021801 -0.0012675154
0.067161456 -0.12226262 -0.18408917 0.05533633 -0.09176226 -0.17931403 -0.052861385 0.10825555
0.06745906 0.34614953 0.25829807 0.3097056 0.01880639 0.035129204 0.101591185 0.19610246
0.021151055 -0.12098574 0.044182684 -0.52017516 -0.4205107 -0.029163616 0.0055457926 -0.2833157
-0.17840156 -0.041332223 0.15093532 -0.23883691 -0.42838836 -0.16295364 -0.28146413 0.052559122
-0.2164627 -0.15602978 -0.29262358 -0.7602193 -0.10040639 -0.37089568 -0.42102036 -0.62368894
-0.12705301 -0.31126064 -0.2658935 -0.22243465 -0.63298464 -0.03723361 -0.032354653 -0.4064223
-0.11350642 0.22301859 0.15474246 -0.36029863 0.17079757 -0.010848666 -0.022880243 -0.34798858

conv1.bias f4 [16]
00000000: 7991 0ebd 64c6 88bd bea3 963d 7ad8 fd3d
00000010: 5424 7ebc 300c 4abd 6450 db3d 7f3b c93d
00000020: 1985 933d 4d6c 16bb e2c1 7ebd 074f 073d
00000030: b05d dd3b abb2 ce3c 1fea 723d b026 833d
-0.034806702 -0.06678465 0.0735545 0.12394805 -0.015511591 -0.04932803 0.10708693 0.09825801
0.07203121 -0.0022952736 -0.06219662 0.03303435 0.006755553 0.02523168 0.059305307 0.064038634

conv2.weight f4 [32, 16, 3, 3]
00000000: 0c2d 613d befa 3a3c 5357 10bd ad03 28bd
00000010: 7981 833d d39a 17bc 2c7d 4cbd 3d26 d9bd
00000020: 4bbc 06be d89d ef3d c59f 173e 5372 1dbe
00000030: c4da d8bd 468f b03d 2060 963d 4bde 463e
00000040: 6d69 063e 54c7 213d fa4b 793d 4eeb 08be
00000050: 8a2b 91bc 0ad3 d3bb 4030 843d e65f 0abe
00000060: 5261 10bd 1fb5 263d 42e9 f8bc 794a 023e
00000070: bf1a c53d c27e a3bc 2b08 923d 9eea e23c
00000080: 790e ef3c d160 6d3d 9471 30be 7958 29be
00000090: 8079 ab3d c148 d43d 1419 f63d 5c15 583d
000000a0: 87e3 85bb 6597 adbd 3b91 8abd 5736 c2bd
000000b0: 69c6 a93d 1853 a6bd 5ba9 0cbe 429f c4be
000000c0: 73a7 733d bf5f 753d ac7b 4d3e 8a31 e93d
000000d0: 80c5 0a3d 3541 a1bd b193 6dbd 7508 41bd
000000e0: 6500 f43d 3087 a0bd ac33 7cbe e57d bb3c
000000f0: 90ac 1abe f7c5 b0be 7203 59bc 43a3 9e3d
00000100: 56d7 e3ba f886 233c ced7 6cbd 3fc9 cebb
00000110: 9b3d 06be c76a 9bbd 90ff 85bd bc16 febd
00000120: 96d6 3b3d bf57 b23d d772 b23d b380 88bc
00000130: 8ec4 3bba 442c 50be dfce 07be 18b8 eb3c
00000140: d361 963c 991b 9abc 3997 b93c fc24 b83c
00000150: cf97 7bbb cd12 1b3d c959 cb3d e379 7f3d
00000160: b4d1 6cbd 89f6 babc 4fe4 6abd a974 043d
00000170: d6b0 6e3d 9ef1 903b ff27 0b3b f0b8 bdbb
00000180: 84b9 aa3d e8f0 c53c 56b3 083e 7022 563d
00000190: b603 f63b d69a a4bc a11f fbbc ceb9 f53c
000001a0: 7931 fb3b bacd cb3d f506 cdbd e78b 9cbd
000001b0: 4176 133e 0c69 aebc 07e1 913e e58f 02b9
000001c0: cb83 163c c4fd 23bd 9824 ccbd 1213 74be
000001d0: ecc9 3d3d 93f0 da3d 9bf6 053e f488 e13d
000001e0: a356 293d 9561 91be c4f9 da3d eb28 a4bd
000001f0: d08f d4be c441 693e e538 923d 639f 873d
00000200: 011e 7fbc 30b0 36bc b23f 983d c41e 713d
00000210: 692b e7bd 77aa 43be 7779 d2bb 57b5 c6bd
00000220: 287b de3c 2fec 50bc 4369 163a 1b9c 913d
00000230: e940 8ebd 3ec8 ff3d f976 f4bd 2db7 6c3e
00000240: 072b 57bd 8dfe 4c3e 22c3 38be 9895 bc3c
00000250: 1a46 e1bc 021d 6a3d 3348 ff3d 0a7a 1c3e
00000260: e997 1bbc 8f3e 113e 9875 41bd fbd5 23be
00000270: 7afd 683e 11ad da3c f591 49be e893 d73c
00000280: e257 91be ff0f dabb 9fd1 f43b 5e76 afbd
00000290: 6f27 6bbd 42d4 09bc fdf0 dbbc 707b d03c
000002a0: e9c9 22bb 65f9 f6bd 70e3 1fbc 307d 26bd
000002b0: f982 5fbc ffca a03d 929d a63d d9ed 27be
000002c0: 30e7 94bc 8791 64bc 38c3 c53c e50e 093c
000002d0: 61ae 973d 8a11 14be fe1f 5b3e 5936 663d
000002e0: 6df0 afbe f365 173e 1f4b 07be 995f d4bc
000002f0: bca9 a63d 514c 8b3d 5527 98bb 8648 5c3d
00000300: 4346 aebe a024 2abd 816c 063e 819c 103e
00000310: 15bd 93bd f881 d2bd 6825 0dbd ee02 cc3c
00000320: f264 413e 9133 9c3d 1680 d4bd 96a6 8a3c
00000330: 13f7 743c ea95 1f3e d690 d73d 499b 183d
00000340: 5ece 40bc f917 b3bc 674f 5b3d 7b2a fe3b
00000350: 833e 5a3d 117d e1bb 575c 4dbd 2121 31ba
00000360: 7bf1 6a3b 05bf a33c 2cc9 433d 8050 e8bd
00000370: c26e db3d a8bf 1c3d 20ad 223d 0f0a 90bd
00000380: 47fb bd3c 5947 84bd c1d7 a83d 701d 82bc
00000390: 1df5 29bd de49 393d 730f 003c 8c3f b4bc
000003a0: eae6 2dbd f7eb 40bc d698 043e 1e9c 243d
000003b0: 3397 3bbd 5c3d d5bd 4878 dd3c 05e8 38bc
000003c0: 7206 623e 24b1 d8bd 07a2 17bd 6571 8f3d
000003d0: ea41 a53d d8dd 613c 7795 273d 34eb 903c
000003e0: 1b7c 64bc f4f0 933d 6fb9 eb3c 72a5 48be
000003f0: c940 2fbd 12df a63d 1978 82bd 89c7 f13c
0.0549746 0.011412321 -0.03523953 -0.04101913 0.06421179 -0.009253222 -0.04992406 -0.106029965
-0.13157766 0.11700028 0.14807041 -0.15375642 -0.10588601 0.08621077 0.07342553 0.19420736
0.13126154 0.039496735 0.060863473 -0.13371012 -0.017720956 -0.006464367 0.064545155 -0.13513145
-0.035249062 0.040700074 -0.030384663 0.12723722 0.09624242 -0.019957904 0.07130464 0.027699765
0.029181706 0.05795366 -0.17230827 -0.16537656 0.08372784 0.10365439 0.12016502 0.052754745
-0.0040859613 -0.08476142 -0.06765982 -0.09483021 0.08289797 -0.081213176 -0.13736479 -0.38402754
0.059485864 0.059905764 0.20066708 0.11386402 0.033879757 -0.078737654 -0.058002178 -0.047127206
0.11914138 -0.07838285 -0.24629086 0.02288718 -0.1510489 -0.34526035 -0.01324545 0.077459835
-0.0017382901 0.0099809095 -0.057822995 -0.0063106115 -0.13109438 -0.075887255 -0.06542885 -0.1240668
0.045858942 0.087081425 0.0871331 -0.016662931 -0.0007162773 -0.20329386 -0.13262509 0.028774306
0.018357193 -0.018811988 0.022655116 0.022478573 -0.0038390046 0.037859727 0.099292345 0.0623721
-0.057817176 -0.022822635 -0.05734664 0.03233782 0.058274113 0.0044233343 0.0021233556 -0.0057898685
0.083361655 0.024162725 0.13349661 0.052278936 0.0075077666 -0.020093363 -0.03065473 0.029995825
0.0076658097 0.099513486 -0.100110926 -0.07643872 0.14400579 -0.021290325 0.28491995 -0.00012451371
0.009186695 -0.04003693 -0.09967917 -0.238354 0.046335146 0.10690417 0.13082354 0.1101245
0.04134239 -0.28394762 0.1069217 -0.08015617 -0.4151597 0.22778994 0.07139758 0.066221975
-0.015571118 -0.011150405 0.07434024 0.05886723 -0.11287577 -0.19107996 -0.006423171 -0.097025566
0.027158335 -0.012751623 0.0005737731 0.07109853 -0.069459744 0.12489365 -0.11936755 0.23116751
-0.05253127 0.20018978 -0.18043187 0.02302055 -0.027499247 0.05715657 0.12464943 0.15280929
-0.009496667 0.1418402 -0.047231287 -0.15999596 0.22752944 0.026693853 -0.19684584 0.026315644
-0.28387362 -0.006654739 0.007471278 -0.085674986 -0.057410654 -0.008412423 -0.02684831 0.025449485
-0.0024839586 -0.12059287 -0.009758815 -0.04064673 -0.013642066 0.078512184 0.08135523 -0.16399325
-0.018176645 -0.013950712 0.02414094 0.008365368 0.07406307 -0.14459816 0.21398923 0.056204174
-0.34363118 0.14784984 -0.1321225 -0.02592449 0.08137843 0.068016656 -0.0046433606 0.0537801
-0.3403798 -0.041538835 0.13127328 0.14122202 -0.07213799 -0.10278696 -0.0344595 0.02490374
0.18886164 0.07627023 -0.10375993 0.016925137 0.014951485 0.15584531 0.10525672 0.037257466
-0.011767952 -0.021862017 0.05354252 0.007756529 0.053282272 -0.006881364 -0.05013689 -0.0006756951
0.00358495 0.019988546 0.047799274 -0.11343479 0.10714485 0.038268715 0.039715886 -0.070331685
0.023191107 -0.06458921 0.08244277 -0.015883178 -0.041493524 0.04523646 0.007816183 -0.022002958
-0.042456545 -0.011775008 0.12948927 0.040187947 -0.04579849 -0.10412094 0.027034894 -0.0112857865
0.22072771 -0.10580662 -0.037019756 0.0700405 0.08069213 0.013785802 0.040914025 0.017690279
-0.013945605 0.072236925 0.028774945 -0.19594362 -0.042786393 0.08148016 -0.06370563 0.029514091

conv2.bias f4 [32]
00000000: e476 a2bd d489 52bd e09d b6bd da2d d33b
00000010: ea20 17be 0079 c0bd fe65 42bd 5aae 953c
00000020: 5fc6 cebd 255e b33c 25a5 8e3b 6ffd 14bd
00000030: d769 1bbe b85f 043c 44de 16bc a59c 173d
00000040: e189 703d da5b bfbc 7194 283b 2d64 3cbd
00000050: a61a aabd eacd 05bd 33ee 09be b716 93bd
00000060: 809b 983d 958b 93bd 6f9c 05be 5e3e 0fbe
00000070: 25c4 0bbd a601 76bc 9d21 44bd 477e a1bd
-0.07932833 -0.051400974 -0.08916831 0.006444675 -0.1475865 -0.09398079 -0.04746055 0.018271614
-0.1009643 0.021895478 0.004353183 -0.036374506 -0.15177093 0.008079462 -0.009208266 0.037014622
0.05872524 -0.023359228 0.0025723244 -0.045993973 -0.08305864 -0.032667078 -0.13469772 -0.07182067
0.07451534 -0.072043575 -0.13047956 -0.13988635 -0.034122605 -0.015015041 -0.04788362 -0.078854136

conv3.weight f4 [64, 32, 3, 3]
00000000: d14c 08bf 32e0 3bbf e0f2 f6be 440a 483e
00000010: 4079 2cbc 63be 96bb 62bc 073e d020 813c
00000020: 5903 cdbb 7685 613b d9ab 1cbe 0c95 80be
00000030: 64eb adba 81b3 d6bd 1e31 a3be a77c 023d
00000040: dfd8 c9bd c4d2 15bf a451 0bbf 2999 81be
00000050: 1b4e d6be fd23 89be 579e 00be 51ce 15bd
00000060: beaf 6ebd 7127 e23b 807a 3a3e c77f 033e
00000070: b08a b33c 921b a83b d6a6 213e efd2 cc3d
00000080: ece9 323e 7d19 513e 38bd 5d3e 7e4b 013e
00000090: 2d73 9abe 5398 35be fcf2 05bf fab6 013e
000000a0: 24fa 963d 1967 18be d26f e3bd 079d f7ba
000000b0: 0f7b 40be ddbc 97be 4f3a 563e 8a6b 813e
000000c0: 2548 5a3e ea6d 1f3f fd01 043f 4aa2 a83e
000000d0: 9ca7 1a3f dd44 fb3e 3686 bdbd 3ac7 22be
000000e0: 9892 6fbe ec4c a8bc a899 3f3d 4df5 d03d
000000f0: f2a0 8e3d f5b0 3c3e 56c0 373e e5f8 3a3d
00000100: 26f0 4f3e 7b2b 103d 959c da3d 62cb 6b3e
00000110: ef7d 633e 008e 80be b993 1b3e 68d4 843d
00000120: 3565 513e 99d5 8b3e 5fc5 ff3d 6e1a 9f3e
00000130: d42d 963e d606 92be af6b 9bbd ea53 babc
00000140: e1bc 04bf 6242 4a3b 702f dfb6 7346 e03c
00000150: 469a f23d e225 a03e bb4e 7d3e ae0b aa3e
00000160: 4c32 9c3e 151d d33e facd 5bbe 6dcd 7ebe
00000170: 506b 8fbe 9205 d23c 0484 0e3d fcfb b5bd
00000180: 84a3 17be 1c49 16bd 0971 53be 88aa 0b3e
00000190: 0f58 8f3d d621 ad3d dac0 17bd 7baf c4bc
000001a0: a619 8cbe 9a6d 10bd c134 f2bb a677 e5be
000001b0: 2547 43be 1cc2 d73d 9b9b a7bd c6b3 653e
000001c0: dd7a eb3e eb9c 523e aead 4ebd 159b 003e
000001d0: 42b0 2cbe a821 d23c ae77 983d 9fac b23c
000001e0: b291 843d ec68 fa3c 8f16 39bd 42cd e0bc
000001f0: 9013 b9bd b790 fbbd 2af7 bd3d 442a a53e
00000200: 5e03 02bf 0f7e a93e 9ae3 0a3f 3b3a 0a3e
00000210: a406 bc3d 812b ee3e 8ab5 14bc 9276 a83d
00000220: 926d cd3d dda6 013e 3cc6 ffbc f4de 053d
00000230: 6404 053c c0b7 783d 3652 373d 1c24 2b3d
00000240: fdeb 0c3d acf5 313d 8a06 d6bd 369e 1ebc
00000250: d848 c7bb b52a acbd a811 25bc c5d2 f7bc
00000260: 92a9 1bbe 5045 a83d 0c92 67bd 4a70 97be
00000270: a695 523e c2c5 663d cd02 aebe ba80 c73d
00000280: b9b2 423d 0429 25bf 2692 84be 946d af3d
00000290: c78b 57bc d42c a5bd 199a 723e 7e81 ac3e
000002a0: c7f5 3f3e 8c29 a53e 4483 ec3e 515a cdbd
000002b0: ab97 c3bd c524 003e ce69 eebd 3e58 41be
000002c0: bc58 24be b72a a2bd 237c 90bd f773 88be
000002d0: 9f86 c7bd e747 3ebe 7c34 9cbd 4ca5 a13c
000002e0: 9efa 1bbc e6cd fc3c 1a28 343e d710 d23d
000002f0: 107a f1bc 4c06 61bd d3e3 5f3c 9514 efbd
00000300: ec65 d83e 19ec a73e 3879 8c3e 3c37 6f3e
00000310: 5fa2 ba3e 862d 5b3e 4be8 0ebe 4e6e 3fbf
00000320: 58e1 5abf 7f40 35bd 60c0 0cbf 0845 29bf
00000330: 86b0 8abe 266f 00bf 0b7a 35bf 7904 983d
00000340: ada5 1f3d e8e4 05bd 1b6f bd3d 7410 ea3d
00000350: 2eb7 b83b ee42 263e 6c12 783e c6d5 53bb
00000360: 6bc9 0dbc 8ea1 eebd 65c2 3bbe 69bc 87be
00000370: f3aa 3cbe 4f20 83be a0f7 11be a1f3 c1bd
00000380: 2c50 21bb f5e0 ccbe d848 febe f2d0 27bf
00000390: 33ed dfbe 34e0 84be 85e8 cbbe aca4 7bbe
000003a0: 777f 80be 88eb 64be 54db db3e c185 3a3f
000003b0: 06f8 7d3f 3f16 283f fac5 5d3f b3d3 673f
000003c0: c3cc 0c3f 34f5 243f 0b56 1a3f 5e2e cbbe
000003d0: da98 dfbe 01ef 8fbe fd78 e1bd eb9d 32be
000003e0: b70e a8bd f11b e93d e9fb 90bd 79a1 b0bd
000003f0: 8669 febd 213b 11be 9e37 6ebf 4f21 d73d
-0.5324221 -0.7338897 -0.48232174 0.19535166 -0.010526955 -0.0046003326 0.13255456 0.015762717
-0.0062565026 0.0034411824 -0.1529993 -0.25113714 -0.0013269004 -0.104834564 -0.3187341 0.03185716
-0.09855818 -0.5852473 -0.5442145 -0.25312164 -0.41856465 -0.2678527 -0.12560402 -0.03657371
-0.05827307 0.0069016744 0.18210793 0.12841712 0.021916717 0.0051302398 0.15786299 0.1000117
0.17472047 0.2041988 0.21654212 0.12626454 -0.30165997 -0.17733888 -0.5232389 0.12667456
0.07371929 -0.14883079 -0.111053124 -0.0018891402 -0.18796943 -0.2963628 0.2092068 0.25277358
0.21316583 0.6227709 0.51565534 0.32936317 0.60412 0.49075976 -0.09254114 -0.15896311
-0.23395765 -0.020544492 0.046777397 0.102030374 0.06964292 0.18426879 0.17944464 0.04564752
0.20306453 0.035197716 0.10674397 0.23026803 0.22216009 -0.25108337 0.1519307 0.06485826
0.20448764 0.273114 0.124888174 0.31074852 0.2933184 -0.2852084 -0.075888984 -0.022745091
-0.51850706 0.003086232 -6.6514403e-06 0.027377343 0.118458316 0.31278902 0.24737065 0.33212036
0.30507123 0.41233125 -0.21465293 -0.24883051 -0.2801156 0.025637422 0.03479387 -0.08885953
-0.1480847 -0.036690816 -0.20648588 0.13639271 0.06999218 0.08453719 -0.037049152 -0.024009457
-0.27363318 -0.035260774 -0.0073915427 -0.44817847 -0.19070108 0.1053507 -0.08183976 0.2243186
0.45992175 0.20567672 -0.050458603 0.12559159 -0.16864112 0.025650814 0.07444702 0.021810828
0.06473102 0.030567609 -0.04518753 -0.027441625 -0.090369344 -0.122834615 0.092756584 0.3225881
-0.5078639 0.33103988 0.5425354 0.13498776 0.09180954 0.46517566 -0.009076485 0.082257405
0.100306645 0.1266131 -0.031222455 0.032683328 0.008118723 0.060722113 0.044756137 0.041782483
0.034404743 0.04344718 -0.10450466 -0.009681275 -0.0060816817 -0.08406583 -0.01007501 -0.03025187
-0.15201405 0.08216345 -0.056535766 -0.29577857 0.20564899 0.05634094 -0.33986512 0.097413495
0.047533724 -0.6451571 -0.25892752 0.08565822 -0.013155884 -0.08065191 0.23691596 0.33692545
0.187461 0.3225826 0.46193898 -0.10026992 -0.09550413 0.12514026 -0.116412744 -0.18881318
-0.16049474 -0.079183035 -0.07054927 -0.26650974 -0.09742474 -0.18582116 -0.07627198 0.01973214
-0.009520201 0.030859899 0.17593423 0.10257118 -0.02947715 -0.054937646 0.013665157 -0.116738476
0.4226526 0.32797316 0.27436233 0.23360914 0.36452004 0.21404085 -0.139558 -0.74777687
-0.855001 -0.04425096 -0.5498104 -0.6612096 -0.27087802 -0.501696 -0.7088935 0.07422728
0.03897636 -0.032689005 0.09249707 0.114289194 0.005637071 0.16236469 0.24225777 -0.0032323464
-0.008653979 -0.11651908 -0.18335874 -0.26510933 -0.18424587 -0.25610587 -0.14254618 -0.09470297
-0.0024614437 -0.4001538 -0.4966495 -0.655532 -0.43735656 -0.25952303 -0.39825836 -0.24574536
-0.25097248 -0.22355473 0.42940772 0.7286034 0.9920658 0.65658945 0.86630213 0.905574
0.5499994 0.6443665 0.6028754 -0.39683813 -0.43671304 -0.28112033 -0.11009405 -0.17443053
-0.08205932 0.113822825 -0.07079298 -0.086245485 -0.12422471 -0.14182712 -0.93053615 0.105044

conv3.bias f4 [64]
00000000: e49e b0bd 7cb1 2d3d eb10 ac3d f001 6f3d
00000010: 2dcd ab3d 3545 b73d 4acc 933d 2e0d 63bd
00000020: 8590 23bd 171a e03b 1d26 72bd 858c 16bd
00000030: e391 883d 6032 ee3d 95b2 53bd 64bb 8cbc
00000040: d7f1 4bbc 3329 c8bc c8d5 963d c99b ebbc
00000050: b00b acbd cd4c 233c 7ad7 4f3d b8c1 de3c
00000060: 0c1f 2abd fa5d 813c 87ea 88bd 501c d8bd
00000070: 338f f5bc feb9 49bd 391b 0bbd aee5 6dbc
00000080: cad9 373d 19bf 70bd fa2a 45bd 6dfc a5bd
00000090: 769b a63d 8cbe 2b3c da78 e63c 3d79 98bd
000000a0: 9862 803d 2b3d 95bc ed3e f93c 7443 cd3c
000000b0: 8f0d 9bbd 64e8 d63b d48a e33c 2cef 8cbd
000000c0: c6d8 9d3d 38ce cebb 7f30 593d 6285 a2bd
000000d0: cb3b c7bd a9ca b4bd 50c7 8e3d 8d9a 213a
000000e0: 91e6 a93b fcd4 753d 8675 abbc 201c e5bd
000000f0: f91b 29bd c272 b0bd a80f 5b3c 7e2a a7bd
-0.08624056 0.04240559 0.08401664 0.058351457 0.083887435 0.08948747 0.072166994 -0.05543249
-0.039932746 0.0068390477 -0.05911838 -0.036755104 0.06668451 0.11630702 -0.05168398 -0.017179199
-0.012447796 -0.024433708 0.07364994 -0.028760808 -0.08400667 0.009967041 0.050742604 0.027191982
-0.041533515 0.015791882 -0.066853575 -0.10552275 -0.02997551 -0.04924964 -0.03396151 -0.014520092
0.044885434 -0.058775995 -0.04813669 -0.08104787 0.081351206 0.010482442 0.028133798 -0.07444999
0.06268805 -0.018217644 0.030425513 0.025056578 -0.075709455 0.006558465 0.02777616 -0.06881556
0.07707362 -0.0063112043 0.053024765 -0.07935597 -0.097282015 -0.08827717 0.069716096 0.00061646925
0.0051849564 0.06001757 -0.020930063 -0.11187005 -0.041286442 -0.08615638 0.013370432 -0.081624016

output_layer.weight f4 [4, 64]
00000000: 6af2 133f ef0a 983e 7b57 dfbe 65ec 1e3e
00000010: c7bc 4b3e 2eb6 4e3e 71c5 efbe 5d24 6fbd
00000020: cde5 823e 4436 f73e 2d4c a5be a399 493e
00000030: e96f 093f f086 46be 72f3 ee3d 2a4d f33e
00000040: 1d86 6cbe a076 173e 9f21 9d3e b3bb bebe
00000050: 88fb 173f 71ff c63d fcc0 c93d 833d b6be
00000060: 14b1 a53e 1799 78be ff44 f9be 7ba7 223f
00000070: f748 b9bd 4ce7 693e a4e7 abbd e8d3 663e
00000080: 9b2b 393e 0e1b ce3e e478 963d bc38 cd3e
00000090: c334 bbbe c2e7 b13d 6c99 ff3e 3186 873e
000000a0: 6e64 3a3e baff 0d3e 5605 c6be a2eb 4d3c
000000b0: ab2c b43e 165e 563e 5ecc 833e 056a 243f
000000c0: 6273 473e c58e c5be e17b babe 818e 9b3e
000000d0: 7e20 5e3f e072 1e3e 07c1 c5be 5da2 7e3e
000000e0: 8aac a5be 2f68 203e 87a2 bfbe f043 c2be
000000f0: 8ff4 e83e 4578 283f 1100 f1be a725 603f
00000100: 78a4 073f 1d7e 903e 5a21 cabe 4f2b 953d
00000110: b2e2 463e 7a92 3a3e 3d14 f1be 27da b4bc
00000120: 258c 1a3e 5bcc 1f3f 845e 9d3d 55e6 9f3e
00000130: 5f5d 823d 416d 04bf f968 26bf faf2 7e3e
00000140: e509 a3be 88ad 403f 9c0c 163e 260c cc3c
00000150: 8392 9b3d c1f6 7f3e 93b2 753e 0e31 a23d
00000160: 5e58 ec3e ecaf 87be ecca f13e 8b6f 373f
00000170: 6683 a9be d822 0b3e 4d12 fbbd eb53 c13d
00000180: ee60 23be 2c67 bc3e 4dbf 5f3e f03a 493e
00000190: 7b12 c0be e329 9e3e d20b 0d3f cfc3 a13f
000001a0: 1104 883e ca12 673e 918d c3bd 7118 e3be
000001b0: e1f2 bf3e 3214 3a3e 0061 de3d b343 303c
000001c0: 0ff9 313e e4da 28bd edd0 863d 0afe 913e
000001d0: bde7 0f3f d1e2 053f 88f8 89be 0dad 283e
000001e0: 1795 fabe 0108 0b3e ad27 d63e e3ab 2c3e
000001f0: 16a9 063f b28c d13e ab0b bbbe 4378 1c3f
00000200: ae76 073f 49a0 563e 2431 0abf 2e27 7b3d
00000210: 6f54 5d3e 6687 033e 8fe5 1abf ecbe 2bbd
00000220: b648 1f3e 3b58 c23e 3f6e cc3d 6b77 bf3e
00000230: 89bb 803e f3d9 acbe 14e6 70bb 875a 2f3f
00000240: c149 9abe df51 813e 257a 273e 84fc bcbc
00000250: 7e2f 073f 2624 5c3e d489 6b3e 4c6e 6bbe
00000260: 87ed 013f f796 2d3c 1cc8 cebe 1e04 873f
00000270: 6a90 8cbe c9b4 6f3e e642 cbbd 0ca3 743e
00000280: 6df6 dcbe ebcb a13d 22b5 2bbe 5d7f cb3e
00000290: ec3b 07be 093f 563e 16fd 3a3f 6baf 393f
000002a0: b360 3d3e 0394 393e ceab 8ebe c7f9 94bd
000002b0: d9e6 a33e 3d95 333e 6416 5e3c 1e15 053f
000002c0: 28ed 703e 5056 723e 4228 e1be 43da c73e
000002d0: 2480 273f 2428 85be b846 62be 9080 5c3e
000002e0: 40ea 96be fac5 863e 03ce acbe a570 f5be
000002f0: de7e 3d3f 3a25 263e 622a e7be cf15 1a3f
00000300: bb92 4b3f 4e24 c23d a731 b8be 589c 8c3e
00000310: f147 883d 7bb7 403e 2f32 a9be e26c 4b3c
00000320: abd4 8f3e e9ec 9d3e 432b b8be 8101 df3e
00000330: 2918 23bd 053b 83be 2822 b93d 19f4 0d3f
00000340: 4698 98be 81a2 323f cbe1 4f3e 1d56 7abe
00000350: b051 a3bd b005 8a3e 4398 223e af5b afbe
00000360: 14bd 933e d4a7 05bf 67b4 da3e 0bba dd3e
00000370: 13c4 baba 62b9 ab3e 517c ec3d c091 203e
00000380: 8b20 b2be 8f50 763e cc1a b33e f266 bf3e
00000390: 5760 c5be 1a49 693e bd32 353f 131f 863d
000003a0: 5a33 813e 0963 393e ccb4 b03e 4f09 41be
000003b0: 6be0 aa3e 7cc0 633e 5cbe 323e 37cf be3d
000003c0: 123a 253e 338e 99be 6435 97be a40c 8f3e
000003d0: 4b18 063f 3a45 4f3f 6894 d8be 55fb bd3d
000003e0: c852 d1be 886a 473d 7ab9 013e a041 023f
000003f0: e556 373f a8a3 7c3f a310 cbbe ec31 023f
0.5779177 0.29695842 -0.4362143 0.15519865 0.19896232 0.20186684 -0.46830323 -0.058384288
0.2556595 0.4828359 -0.3228468 0.19687514 0.53686386 -0.19387412 0.11667527 0.4751981
-0.23098035 0.14791346 0.30689713 -0.37252578 0.5936818 0.0971669 0.09851262 -0.35593805
0.32361662 -0.24277149 -0.48685452 0.63536805 -0.0904712 0.22842139 -0.08393791 0.22541773
0.1808304 0.40255016 0.07347277 0.40082347 -0.36563691 0.086867824 0.4992174 0.26469567
0.18202373 0.13867083 -0.38675946 0.012568386 0.3519033 0.20934328 0.25741857 0.6422427
0.19477609 -0.38585487 -0.36422637 0.3038216 0.8676833 0.15473509 -0.3862383 0.24866624
-0.323582 0.15664743 -0.37428686 -0.37942457 0.45499083 0.65808517 -0.47070363 0.8755745
0.52985334 0.28221217 -0.3947857 0.07283651 0.19422415 0.18219939 -0.47085753 -0.02207668
0.15092523 0.62421197 0.07684043 0.31230417 0.063654654 -0.5172921 -0.65003926 0.24897376
-0.31843486 0.7526479 0.14653248 0.024908137 0.07596304 0.24996473 0.23993902 0.07919513
0.4616117 -0.26501405 0.4722513 0.71654576 -0.33108062 0.1358751 -0.1225935 0.09439834
-0.15954944 0.36797464 0.21850319 0.19651389 -0.375141 0.30891332 0.5509616 1.2637881
0.26565602 0.22565761 -0.09548486 -0.44354585 0.3748999 0.18171766 0.10858345 0.010758328
0.17380165 -0.041224375 0.06582818 0.2851413 0.5621298 0.5229922 -0.26947427 0.16472264
-0.48941872 0.13577272 0.41827145 0.16862445 0.52601755 0.40927655 -0.3653234 0.61121005
0.52915466 0.20959581 -0.5398123 0.06131666 0.2161424 0.12844619 -0.6050653 -0.041930124
0.15555081 0.3795794 0.09981965 0.37395796 0.25143078 -0.33760032 -0.003675823 0.6849751
-0.30134395 0.25257775 0.16355188 -0.023069628 0.5280684 0.21498165 0.23001796 -0.22991294
0.5075306 0.010595075 -0.40387046 1.0548131 -0.2745393 0.23408808 -0.09924869 0.23890322
-0.43156758 0.079002224 -0.16768315 0.39745608 -0.13206452 0.20922484 0.7304243 0.7253329
0.18493919 0.18122868 -0.27865452 -0.07274204 0.3201206 0.17537399 0.013555143 0.5198535
0.23527968 0.23665738 -0.43976027 0.39033708 0.654299 -0.26007187 -0.2209729 0.21533418
-0.29475594 0.2632292 -0.33750924 -0.47937503 0.7402171 0.16225138 -0.45149523 0.6018953
0.7952077 0.09479581 -0.35975382 0.2746303 0.06654347 0.18819992 -0.330461 0.012416096
0.2809194 0.3084481 -0.35970506 0.43555835 -0.039817963 -0.25630966 0.09039718 0.5545059
-0.29803675 0.6977921 0.20300977 -0.24446912 -0.07974565 0.26957464 0.15878396 -0.34249637
0.28855193 -0.5220921 0.4271576 0.43306002 -0.0014249108 0.33539873 0.11547149 0.15680599
-0.34790453 0.24054168 0.34981382 0.3738323 -0.38550064 0.22781792 0.70780545 0.06548896
0.2523449 0.18104185 0.34512937 -0.18851207 0.33374342 0.22241396 0.17455429 0.09316867
0.16135433 -0.29991302 -0.2953292 0.27939332 0.5238082 0.80965006 -0.42300725 0.092764534
-0.4088347 0.04868558 0.1266841 0.50881386 0.71616966 0.9868722 -0.3966113 0.50857425

output_layer.bias f4 [4]
00000000: 3748 0ebc e009 14bd 0b42 27bd 2f88 833c
-0.00868421 -0.03614223 -0.040834468 0.016056148
