data/models/20240311114022_episode_999_obs_F__comb_F__solo_T/model.pt (torch, 100091 bytes, 8 tensors)

conv1.weight f4 [16, 7, 3, 3]
000000 eb 66 f9 bb 11 00 c6 bd 70 30 01 bd c6 dd 44 3d
       -0.0076111457 -0.096679814 -0.031540334 0.048063062
000010 1e ac f2 3c f1 46 ab bc d2 8f 66 bd 65 a5 d2 3d
       0.029623087 -0.020907851 -0.0562895 0.10285453
000020 c0 09 01 bd f6 82 6a bd 24 9e b6 3c 26 15 fd bd
       -0.03150344 -0.0572538 0.022292204 -0.12357549
000030 29 0e 17 3d 3b 40 82 3d f4 8e e5 3d 1f 45 8f 3d
       0.03687874 0.06359907 0.11208907 0.06995606
000040 32 04 08 3d e6 57 e1 bd 46 a9 e3 bd 2e 35 7d bd
       0.033207126 -0.110030934 -0.11116271 -0.061818294
000050 2b 85 8c 3c 6e 19 d3 bd 99 12 3a be bc c9 15 be
       0.017153343 -0.10307585 -0.18171157 -0.14627737
000060 a8 0b 23 3e d4 8c b5 bc 32 48 f7 bd ba bd 80 be
       0.15922415 -0.022161879 -0.12074317 -0.2514475
000070 06 85 10 be 93 4f 9d 3c 98 09 08 bc 23 b2 2f be
       -0.14113244 0.019202983 -0.008303069 -0.17157798
000080 b1 25 d7 3d d2 ed d4 3d 1a 05 0b 3e 0a fd fd bc
       0.10505236 0.10396923 0.13576165 -0.031004447
000090 38 35 ef bd bf fd 9e bd 1c 4d a7 bb 61 df e2 3d
       -0.116800725 -0.07763242 -0.0051056277 0.110777624
0000a0 19 34 5b be e2 1d 63 be 3a 03 96 bd 1d 45 00 3e
       -0.21406592 -0.22179368 -0.07324834 0.12526365
0000b0 b7 c5 e8 3b c8 84 29 bd 09 5c 5d be 04 7a 00 be
       0.0071036476 -0.041386396 -0.2161714 -0.12546545
0000c0 48 ba 57 bd 95 ac 22 be d7 c8 b6 bc 85 31 38 be
       -0.052667886 -0.15886147 -0.022312565 -0.1798764
0000d0 2b 6f f4 bb 6e 5d 79 bd 52 66 3e 3e 85 3a 6b bc
       -0.0074595413 -0.060880117 0.1859372 -0.014357214
0000e0 53 28 ab 3e f0 e1 f9 3e 7b d5 07 3e a1 ac f4 3e
       0.33429202 0.4880519 0.1326503 0.47787955
0000f0 6c b8 6e be 30 44 f3 3d 54 8d e9 3e f3 9b d7 3d
       -0.23312539 0.1187824 0.45615637 0.10527792
000100 93 8a f9 bc a3 8c c1 3d 8b ab a9 3d 5f c3 67 bc
       -0.030461585 0.094506525 0.08284672 -0.014145701
000110 62 68 9e bd 80 b0 77 bd ab 97 dc 3d 47 f0 8c bb
       -0.07734753 -0.060471058 0.10771116 -0.004301104
000120 32 00 d6 bd 42 b3 fa 3d 08 82 34 3d c5 76 96 3c
       -0.10449256 0.12241222 0.04406932 0.01836718
000130 81 8d 3b 3d d3 cd e2 bd 01 e5 bf 3d 84 13 ad 3c
       0.045789246 -0.11074414 0.09369851 0.02112747
000140 15 1f 9f bd a7 5c 2e 3e e7 fb d7 bc be b4 32 3e
       -0.077696 0.17027532 -0.026365234 0.1745176
000150 6b 9d e0 3c 7e bb 08 3e 9d c0 88 bb f6 00 c6 3e
       0.027418813 0.13352773 -0.004173352 0.38672608
000160 a5 30 be 3e 62 42 4d 3e aa ba 72 be 0e 13 88 3e
       0.37146488 0.20044854 -0.23704019 0.26577038
000170 95 0d c6 bc 8c f3 63 be 9a 59 8d be ae 14 44 bd
       -0.024176398 -0.22260875 -0.27607423 -0.047871284
000180 66 a1 45 be a5 10 ed 3d 95 2f f9 bd fb 79 d9 3d
       -0.1929985 0.1157544 -0.12167279 0.10618969
000190 dd 2f 25 3e a1 ec 2b 3e 00 df a7 be 8c a2 cf be
       0.1613154 0.16789486 -0.32787323 -0.405537
0001a0 53 08 42 be 73 e0 a3 bd 4e 1f e4 be 47 21 f1 bd
       -0.18948488 -0.08001795 -0.44555134 -0.11773925
0001b0 e6 47 88 bd ae a6 8f be 70 15 f0 bd f5 9d a8 be
       -0.066543385 -0.28056854 -0.11722839 -0.32933012
0001c0 9e ee dd be 7c fb 02 bf db 86 88 be 76 13 af be
       -0.43346113 -0.51164985 -0.26665387 -0.34194535
0001d0 aa 5d e2 be 1d 97 61 3e 52 74 64 3e 9f 04 b6 3e
       -0.44212085 0.22030301 0.22309998 0.355504
0001e0 cc 26 13 3e 21 0a 3f 3e 8e 36 63 3e 5d de 27 be
       0.14370269 0.18656208 0.2218878 -0.16393419
0001f0 6e 95 46 3d 7f ad 05 3e c6 ef e4 3d bd 0b a2 bd
       0.04848235 0.13054465 0.11178546 -0.07912395
000200 88 d7 0c bd 97 55 2b 3d ef 30 e5 bb cd 82 e0 bd
       -0.034385234 0.04182967 -0.0069943587 -0.10962448
000210 5b cf 1c bc 90 39 eb bd 51 14 9f 3d cb 5a 39 bc
       -0.009570922 -0.114855886 0.07767547 -0.011313151
000220 ad 68 cd 3d 6b fe 9b bd 5b d0 c8 bd ad c8 f8 3d
       0.10029731 -0.07616886 -0.09805366 0.12147651
000230 65 b1 b7 bd 9d e0 98 bd 53 19 7e bd a5 1b 5d bd
       -0.08969382 -0.074647166 -0.06203587 -0.053981442
000240 2e 67 1d 3e 1e 1f 1c bd 3b ab b8 3b d2 45 d8 3d
       0.15371391 -0.038115613 0.0056356466 0.10560192
000250 9a c1 43 3d 1b c3 84 bd c4 9d 78 3c df 7f 9d bd
       0.047792055 -0.06482526 0.015174333 -0.07690405
000260 61 0b 1f 3e da 03 cc bb fe 5a a6 bd ea 10 b5 bd
       0.15531684 -0.006226045 -0.08122824 -0.08841117
000270 77 98 fd bd fd 50 38 be 56 01 a8 bd ae 4c 12 be
       -0.12382596 -0.17999645 -0.0820338 -0.14287063
000280 c2 eb 5f bd 7d ad 55 3d a8 e1 23 3d 27 56 77 bd
       -0.054668196 0.052167404 0.040010124 -0.060384896
000290 d6 10 5b bd 94 ed 15 3d e1 9a 24 be 11 d7 09 be
       -0.053482853 0.036603525 -0.16074707 -0.13460948
0002a0 05 58 c7 bd a8 86 2f be de 22 da 3d 63 54 f1 3d
       -0.09733585 -0.17141211 0.10651182 0.117836736
0002b0 8b 98 28 3e bf ad 81 3c 3b be 49 be 48 34 c1 bc
       0.1646444 0.015829919 -0.19701473 -0.0235845
0002c0 e6 b6 ad 3d 3a c8 f1 bd 5c 2c f9 3d d9 52 fd 3d
       0.08482151 -0.11805768 0.12166664 0.123693176
0002d0 7f a4 c5 3c d9 a1 b7 3e 38 51 35 be 44 30 fa bd
       0.02412629 0.35865667 -0.17706764 -0.12216237
0002e0 60 39 d4 bd 83 8a 6c 3d a9 30 6c be 01 9e f4 3e
       -0.10362506 0.057749283 -0.23065437 0.47776797
0002f0 d0 30 15 be 1f 6e 4d bd 07 97 37 3d 95 9b a0 3b
       -0.14569402 -0.050153848 0.044821765 0.0049013593
000300 e0 47 88 3d d3 1b 2e be c7 a8 3d be 0f 18 90 bd
       0.06654334 -0.17002802 -0.18521415 -0.07035839
000310 2f c8 48 3d c3 71 9c 38 a8 55 85 3d 48 5b a8 bd
       0.049019035 7.4598494e-05 0.06510478 -0.082205355
000320 d3 4b b7 bd 7d 01 80 3c d4 a1 e1 3d 8d 1d f8 3d
       -0.08950009 0.01562571 0.110171944 0.12115011
000330 72 95 9e 3d 76 f8 b9 3d a9 34 ce 3b 54 a6 63 be
       0.07743348 0.09080593 0.0062928987 -0.22231418
000340 91 79 0e bc 21 02 58 3d d8 e2 a1 be d7 52 31 bd
       -0.008695976 0.052736405 -0.3161838 -0.043291893
000350 01 2d 91 3e 6e c5 c0 bd e5 fa 40 3e aa e7 34 3e
       0.28354648 -0.09412657 0.18845709 0.17666498
000360 96 ab fa bd 51 6a 78 3e 58 e7 7e bd c1 5a 34 3e
       -0.12239759 0.24259306 -0.062232345 0.17612745
000370 50 eb ab be 16 bd b8 be 77 30 66 bd 26 51 8f 3c
       -0.33577967 -0.3608176 -0.056198563 0.01749475
000380 cf 83 90 3c 6d 3c 0f bd 3c 59 11 3e 30 e2 17 3c
       0.017640976 -0.034969736 0.14194196 0.009270236
000390 a4 fe 55 3e 6d c6 e4 be 56 18 9d be 90 0d b7 bc
       0.20897919 -0.44682637 -0.3068263 -0.022345334
0003a0 b7 e3 3e bd e2 ef e5 bc 35 50 77 3c 29 ca 5e 3d
       -0.046603885 -0.028068487 0.015094806 0.054392014
0003b0 c7 e2 00 bd 44 ee 35 3e 0f 22 cc bd f1 67 98 be
       -0.03146627 0.17766672 -0.09967434 -0.297668
0003c0 63 41 84 bd 76 38 65 3d aa 33 e2 bc 8d 42 0e 3e
       -0.06457784 0.05596205 -0.027612526 0.13892575
0003d0 68 6b 92 3e e3 3f c4 3e 4f 15 dd 3e 35 79 ca 3e
       0.2859757 0.38329992 0.4318032 0.395456
0003e0 84 17 ed bc 5f 5f 8f bd 18 34 d3 3d 2f c6 75 be
       -0.028941877 -0.070006125 0.103126705 -0.24001382
0003f0 ca 00 50 3c c9 94 48 3d f9 f7 e9 bc f5 e8 83 be
       0.012695501 0.048970018 -0.028560625 -0.2576367

conv1.bias f4 [16]
000000 8e 3f 36 3d b4 30 f6 3c 7e 93 7b bc 1c ad ae bd
       0.044494204 0.03005252 -0.015354989 -0.08529112
000010 60 f5 bd bd f4 10 fe 3d d0 4f b6 3d bf 4e c8 3c
       -0.09275317 0.12405577 0.08901942 0.024451612
000020 f3 22 13 3d 0f 49 5e bd ff d7 6e bd b6 3a 74 3d
       0.035922002 -0.054268893 -0.05831146 0.059626304
000030 b9 68 02 3e 91 65 c9 3c ce dd 8c 3d 80 3a 42 bc
       0.12735261 0.024584563 0.068782434 -0.011854768

conv2.weight f4 [32, 16, 3, 3]
000000 db ce 04 3c 3f c3 5e bc 21 01 96 bd 43 b0 69 3d
       0.008105959 -0.013596355 -0.07324434 0.057052862
000010 86 f6 af 3d c2 83 ef bc 77 8e a3 3e 27 8f 12 3d
       0.085919425 -0.029237632 0.3194463 0.035781052
000020 59 c5 ae bc 7e 97 84 3d 93 df 80 3d d2 bd c5 3c
       -0.021334337 0.06474207 0.062926434 0.024138365
000030 1e 0b 95 3d ac cf 72 3d e6 c3 35 3d c5 e8 12 bd
       0.07277511 0.059280083 0.044376276 -0.035866518
000040 41 1f ed 3c fa 35 7d 3d 0e 30 13 bd 26 89 be be
       0.028945567 0.061819054 -0.0359345 -0.3721401
000050 93 dc 2d bf 13 eb 70 3e 51 b0 61 be 1d 23 8f 3d
       -0.67914695 0.23527174 -0.22039916 0.06989119
000060 1f c8 be 3e da 23 4d 3e a2 28 15 3e a2 bb ab 3d
       0.37262055 0.20033208 0.14566281 0.083853975
000070 91 d7 1f be 68 10 68 3c 0c a4 5e 3e 02 26 b9 3e
       -0.15609576 0.014164068 0.21742266 0.3616181
000080 11 7d 62 bd eb 55 48 3f 4c 19 02 3f c6 20 ce 3e
       -0.055295054 0.782561 0.5081985 0.4025938
000090 aa fc 02 be e7 a4 eb 3d ec 68 2e 3e 84 fb df bd
       -0.12791696 0.11506062 0.17032212 -0.10936645
0000a0 fc b0 e5 3d 13 7a 20 3e 16 7b 3e be 3f f9 a7 3d
       0.11215398 0.15671568 -0.18601641 0.08201837
0000b0 40 80 4f 3e 7b 0f 3f 3e a6 91 22 3e 0b 4f f8 3d
       0.20263767 0.18658249 0.15875873 0.12124451
0000c0 14 38 82 3e da db 94 3e d4 7b 0f 3e de 23 3b 3d
       0.2543341 0.29073983 0.1401208 0.045688502
0000d0 4e 62 44 3e 12 ad 4d 3e d6 f6 da bc 41 46 43 3d
       0.19178125 0.20085552 -0.026729029 0.04767442
0000e0 f5 1e e7 3a 43 24 ba bb c7 25 f0 bc 6e 13 91 3b
       0.0017633127 -0.0056805923 -0.029314889 0.004427365
0000f0 ae 44 d6 bd 23 76 8c bc 23 db 22 bc 8e af a1 3c
       -0.10462318 -0.017146176 -0.009939942 0.019737031
000100 7f e8 8b bd 10 af 8c bd a6 e9 3d bd 1a 22 96 3c
       -0.068314545 -0.06869328 -0.046365403 0.018326808
000110 7b b5 4c bd 44 78 31 bd 78 66 b3 bd b8 bd 74 bd
       -0.04997776 -0.043327585 -0.08759779 -0.059751242
000120 80 67 0d be 45 a4 ac bd 51 ae 88 bd fc 52 85 bb
       -0.13809013 -0.084297694 -0.06673873 -0.0040687304
000130 63 66 82 3b 68 8f 18 bd 1f 9e 89 3e 4f 14 4d 3d
       0.0039794906 -0.037246138 0.2687845 0.050068196
000140 df 23 db 3d b3 91 a2 3d 4f b4 66 3e 05 e1 d0 bc
       0.10700201 0.07937946 0.2252972 -0.025497923
000150 ec 1d 9a 3e 93 63 c8 3e f6 b0 67 3d f2 8e 03 3f
       0.30100954 0.3913847 0.056565247 0.5138999
000160 12 bf 4c 3f f7 c9 90 3e a5 25 86 bd 01 fb 51 be
       0.7997905 0.28279087 -0.06550149 -0.20505907
000170 7f 7a 1e bf 40 9a fc bc ad 7b d7 bd e3 ce 94 be
       -0.61905664 -0.03083527 -0.10521636 -0.29064092
000180 63 b5 ab 3e 9f bd 1f bd 46 ba cd bd 43 ca 1b 3d
       0.33536825 -0.038999196 -0.100452945 0.03803469
000190 67 5c 99 ba 05 b4 c4 bd 08 6f 55 3c 43 1e 31 3d
       -0.0011700512 -0.096046485 0.01302696 0.04324175
0001a0 ee 81 18 be 5e 4c 48 be 22 80 3f bd 34 66 c4 bd
       -0.14893314 -0.19560382 -0.046753056 -0.09589806
0001b0 06 85 90 bb 14 30 1c 3c b2 22 b6 3b 4d 76 32 bd
       -0.004410389 0.009532947 0.005558335 -0.04356985
0001c0 0d b7 59 3d de c3 48 3d 4f 14 2b bd 31 92 3c bd
       0.053153086 0.04901492 -0.041767415 -0.046037856
0001d0 48 63 a6 bd 54 9b c1 bd 90 db 9d 3d e3 f5 5d 3d
       -0.08124405 -0.094534546 0.07707894 0.054189574
0001e0 de b8 94 bd 23 78 7c 3c 21 15 c8 3c 12 f8 47 3b
       -0.07261823 0.015409502 0.024424138 0.0030512852
0001f0 7a 44 9c bd 30 b2 83 3d 92 f2 8f bd ae 2e 92 bd
       -0.07630248 0.06430471 -0.070286885 -0.0713781
000200 b8 dd be 3c 1b 61 db bd cd 87 68 3c c7 ea 7a bd
       0.023299083 -0.10711881 0.014192534 -0.061259057
000210 f7 5f fb bd fd 9e b9 bb 07 f0 5d 3d a6 72 dd 3c
       -0.12274163 -0.005664705 0.054183986 0.027032208
000220 45 7c 91 3d 83 54 b3 3d 6d 1d 44 3d fc f9 39 3d
       0.07103781 0.08756354 0.047879625 0.04540442
000230 52 6f b6 3c 83 84 73 bd b3 a2 89 3d b6 ff 63 3c
       0.022269879 -0.059452545 0.067204855 0.013915947
000240 b0 76 15 3d a6 aa c2 bd 0e 7a fe 3c db 01 8b 3d
       0.036490142 -0.09505205 0.03106406 0.06787463
000250 ad 63 be 3c 14 47 61 3d 54 ac c8 bc 63 80 41 be
       0.023240888 0.054999426 -0.024496235 -0.18896632
000260 07 0f 1f 3d cf 57 29 bd 4e 9c 7c bc ae ff 5c bd
       0.03883269 -0.041343506 -0.015418125 -0.053954773
000270 81 6c 15 bd 31 c0 e4 bc 31 ed bf bc 78 33 3b bd
       -0.03648043 -0.027923675 -0.023428531 -0.04570338
000280 d0 b5 b0 bd 58 f2 cb bd 26 b3 cf bb 5f 1f 7b 3d
       -0.08628428 -0.09958333 -0.006338495 0.061309215
000290 f7 94 0d 3d c9 f2 ee 3d ad 1a 3d 3e 77 bc 63 b9
       0.034565892 0.11667401 0.18467207 -0.00021718616
0002a0 2c 69 24 3e 47 aa 1d 3e d2 1c 1d 3e e9 86 93 bd
       0.16055745 0.15396987 0.15343025 -0.072034664
0002b0 15 a7 d9 bd 7e cd 33 bd 21 eb 4d 3d 60 e6 87 bd
       -0.106275715 -0.043897144 0.050273065 -0.066357374
0002c0 7b 9e fb bc 20 7c d1 bc d9 01 01 3e bd 46 b9 3d
       -0.030715218 -0.025571883 0.12598361 0.090466954
0002d0 87 65 11 bd 6a 42 d9 bd ba 25 85 3c 53 4c 35 3e
       -0.035497215 -0.106083706 0.016253341 0.17704897
0002e0 e1 cf cf 3d ae e2 b8 3e 01 5d 1c bd 0b 2e 6f bd
       0.10147072 0.36110443 -0.038174633 -0.05839352
0002f0 48 5c 1b 3e 87 40 2c 3e 61 1e 02 3d d0 dd 15 be
       0.15171921 0.1682149 0.031767253 -0.14635396
000300 46 38 ae 3e d0 70 88 3e 8a 48 bf 3d 8b 71 6a 3e
       0.34027308 0.2664857 0.093400076 0.22894876
000310 3d 13 d3 3d 29 f9 63 3e 90 43 83 3b ec 65 78 3d
       0.10306404 0.22263016 0.004005857 0.060644075
000320 b5 da 0f 3d d5 02 df 3c cd 54 c9 3d 3e 34 69 3c
       0.035120685 0.02722303 0.098306276 0.014233647
000330 5f 0a 5c bc 07 3a 79 3d 71 a2 2f bd d6 95 08 3d
       -0.013430207 0.060846355 -0.042879526 0.03334602
000340 3d a3 d1 bc 50 c6 9a 3d 26 00 c7 bd fb 87 a9 bc
       -0.025590533 0.07557356 -0.09716825 -0.020694723
000350 8f e2 d5 3c 3c d6 7c bd 31 69 18 bd 36 14 8b bc
       0.026109008 -0.061727747 -0.037209693 -0.01697741
000360 8d 70 0c be 22 14 a9 bd 2c 2b 3b be 10 ac 6b bb
       -0.1371481 -0.08255793 -0.18278188 -0.0035960712
000370 87 12 98 bd 6b 6f 0c bd 09 cb b1 3c a4 1e 51 3d
       -0.07425409 -0.034285944 0.02170326 0.05105461
000380 da e9 d0 3d 9a 9f cd bb 16 67 05 3d f7 39 8f bd
       0.10200854 -0.0062751295 0.032569014 -0.06993478
000390 25 e3 bb 3d 70 32 50 bd 3d 18 c3 3d 12 da da 3d
       0.09174184 -0.05082935 0.095261075 0.10686125
0003a0 1f d9 03 be 7e a3 f1 3d 63 35 b4 3d bd 0d fd 3d
       -0.12875794 0.11798762 0.08799245 0.12356136
0003b0 bc 2e 4f bd a7 43 f2 bc b1 24 48 3e 74 4f 80 3e
       -0.05058168 -0.029573275 0.19545247 0.25060618
0003c0 af 83 50 bd c5 09 8f 3c 39 85 2b 3d de bd f5 3d
       -0.050906833 0.017460713 0.041875098 0.11999105
0003d0 9f 85 42 3b 30 e1 0d be 12 ae 29 3d 04 c8 5d 3e
       0.0029681695 -0.13855433 0.041425772 0.21658331
0003e0 86 e4 ad 3d f7 77 33 bc 9b e0 1a 3e 66 51 93 3d
       0.08490853 -0.010953895 0.15124743 0.0719326
0003f0 6e e9 22 3d 99 10 29 bd 61 12 b6 3d c8 16 30 bc
       0.039773397 -0.041275594 0.08890224 -0.010747619

conv2.bias f4 [32]
000000 53 d3 89 3d 61 ee a6 bd b1 de ef 3d c0 f2 96 bd
       0.0672976 -0.08150936 0.11712397 -0.0737052
000010 ee 6a c5 bd 53 c9 9b bd 1c 13 01 be c0 0a c7 bd
       -0.09639536 -0.07606759 -0.12604946 -0.09718847
000020 71 14 0f 3d 52 b4 e5 bd e5 f6 4d bd 41 47 f3 bd
       0.034931604 -0.11216034 -0.050284285 -0.11878825
000030 c4 79 0a be b9 f6 25 bb 37 78 56 3d 97 c6 c2 bd
       -0.13523012 -0.002532406 0.05236074 -0.09510534
000040 a6 54 c8 bd 9e db 05 bd 7b 1c 80 3d af 23 92 bd
       -0.097817704 -0.032680146 0.06255432 -0.07135712
000050 f7 95 af bd 77 21 b2 bd 3c 1b 62 bd e5 93 9d bd
       -0.085735254 -0.08697789 -0.055201754 -0.07694224
000060 1b 58 69 bb 29 21 97 bc a1 58 d3 3c 08 9f 45 bc
       -0.0035605493 -0.01844843 0.025799097 -0.012061842
000070 c5 c0 82 3c 0d cd 1a 3a 39 1e 64 bd 30 56 f2 bb
       0.01596106 0.0005905189 -0.055692885 -0.0073955283

conv3.weight f4 [64, 32, 3, 3]
000000 c3 cc 88 3c aa 09 b8 3c 3d 26 7d bd 1a 27 8e bc
       0.0166992 0.022465546 -0.061804045 -0.01735263
000010 91 9f 52 3d 36 f0 91 bd 18 3c 9c 3d 3b 84 52 bd
       0.051421706 -0.07125895 0.076286495 -0.051395636
000020 83 c4 0d 3a 36 38 06 be 21 89 31 bd c2 32 7b 3d
       0.00054080057 -0.1310738 -0.043343667 0.061327703
000030 15 c4 29 be b5 51 43 bd 63 81 17 bd 69 02 38 bd
       -0.16578706 -0.047685344 -0.036988627 -0.044924174
000040 a9 be 37 3d c0 d3 8e bc 11 0f b8 3c 00 cf 41 3d
       0.044859562 -0.017434955 0.022468122 0.04731655
000050 e5 b6 5a bc e0 cb 80 3c a3 4f 00 3d 2d 9b 06 3d
       -0.0133492695 0.015722215 0.031325947 0.03286283
000060 56 6f 61 3d 25 2d 46 bd c1 79 80 bc d2 ff 12 bf
       0.05503782 -0.048382897 -0.015683057 -0.574216
000070 0d 15 98 3d ab f5 b2 3d 36 9a 26 bf b7 54 4c 3e
       0.0742589 0.08738264 -0.6507906 0.19954191
000080 86 ce 59 3e 90 44 1c bf 7c 5d 9c 3d d3 ac ab 3d
       0.21270189 -0.6104212 0.07635018 0.08382573
000090 f8 d7 31 bd ed 68 09 3e 74 f5 3f 3e e1 b9 eb be
       -0.043418854 0.13418932 0.18745977 -0.46040252
0000a0 ee fe cb 3e fc 00 67 3e e1 6d ad be 7f 56 f9 3e
       0.39842933 0.2255897 -0.33872893 0.48698804
0000b0 6b 58 00 3c 3f bb 47 3c b9 2c 54 bd a7 0f 09 3c
       0.0078335805 0.012190639 -0.051800463 0.008365548
0000c0 07 f2 7a bc 77 42 1e 3d dd 84 a8 3c f4 36 09 3c
       -0.015316493 0.038637605 0.020571167 0.008374918
0000d0 ad 28 c0 bb 4c 42 2f 3d 63 80 36 bf 1c 84 06 bf
       -0.005864224 0.042787835 -0.7128965 -0.5254533
0000e0 c5 4c 94 bd 9b e0 48 bf 50 77 3f bf 5d d6 a4 be
       -0.07241205 -0.7846772 -0.7479143 -0.32194796
0000f0 ff 90 48 bf ea 35 5f bf 63 bb 97 be 9a 44 f7 be
       -0.78346246 -0.8719164 -0.29635152 -0.48294526
000100 d5 2f dc bd 13 58 1b 3e fd a4 fc be 3d c6 b0 be
       -0.10751311 0.15170316 -0.49344626 -0.34526244
000110 44 ed ba 3a a7 c9 00 bf fe 09 af be 2a a2 83 bd
       0.0014261384 -0.503077 -0.3418731 -0.06427415
000120 eb 63 69 3d 0f e2 95 bc d2 d4 51 3b 81 22 ad bd
       0.056980055 -0.01829627 0.003201772 -0.08453847
000130 4c 85 04 3d 68 c9 b2 3d ab 5b 81 be 18 f7 d2 bc
       0.032353684 0.087298214 -0.2526525 -0.02575259
000140 46 cd 4e bc 39 2c 82 bf 9e bf 44 bf 5a 2d 96 be
       -0.012622183 -1.0169746 -0.76854885 -0.29331475
000150 7c e7 ac bf f2 d1 4b bf 41 30 8e be ab 40 b4 bf
       -1.3508143 -0.79617226 -0.2777119 -1.4082235
000160 4e ef 57 bf 68 29 ad bd 4a bb 2e bf d1 a2 c9 3b
       -0.84349525 -0.08455163 -0.6825453 0.0061534424
000170 99 55 d9 3d c2 f6 f7 be cb 0c bf 3e 57 c4 b3 3d
       0.106120296 -0.4843045 0.37314448 0.08777683
000180 75 81 bd be 1b f4 f5 3e 79 99 1e 3e 74 03 89 be
       -0.3701283 0.480378 0.15488233 -0.26760447
000190 0a 3a 1a 3c 67 3a 91 3e b8 9b 03 bf 97 7b 5f be
       0.009413252 0.2836487 -0.5140948 -0.2182449
0001a0 53 0b 02 3e b5 f4 ef be 49 fc c0 be 96 0c f4 bd
       0.12699632 -0.46866384 -0.37692478 -0.11916463
0001b0 7d d9 b7 be 51 8d 0c be 5b 58 19 3d 3e a7 2b bf
       -0.35908118 -0.13725783 0.037437778 -0.67052066
0001c0 41 14 51 3d 7a 64 ec 3d 0e 5e 1a bf b8 d6 84 bc
       0.051044706 0.11542602 -0.60299766 -0.016215667
0001d0 a3 13 f9 3d 9a 7a 42 bd 33 4d b4 3c d3 e7 0a 3e
       0.121619485 -0.047480203 0.022009468 0.13564996
0001e0 16 b0 90 3b 45 a7 dc 3d 4b c5 0e 3e d6 64 0e 3e
       0.0044155223 0.10774092 0.13942449 0.13905653
0001f0 ac 7b 0c 3e 56 37 ca 3d c2 0d 87 bc 50 01 e8 3b
       0.13719052 0.09873836 -0.016486052 0.0070802346
000200 ce 72 16 3c cd 10 25 3b 69 a6 5c 3d 56 8f cb bc
       0.009182645 0.0025187016 0.05386964 -0.024848621
000210 23 6f 2f bd 3b 54 98 3d 5e ab 58 3d 0f 82 41 bf
       -0.042830598 0.07437941 0.052897803 -0.7558908
000220 13 b9 00 bf fc 13 41 be 7e 73 19 bf 62 00 b0 be
       -0.502824 -0.1885528 -0.5994185 -0.34375292
000230 ba ec 21 be 70 3d 1b bf 76 f5 9e be e2 3f da bc
       -0.1581296 -0.6064062 -0.31046647 -0.02664179
000240 58 d0 1c bc 75 d8 d6 3c 74 dc 93 bd b3 fb 83 3d
       -0.009571157 0.026226262 -0.072197825 0.06444492
000250 49 ee bd 3c 2a e4 99 bd 72 92 fa 3d 9b e3 b7 3b
       0.023184912 -0.07514222 0.122349635 0.0056118495
000260 50 06 ee bb 6a d3 c2 3d e3 e7 62 3e 5e 38 3d 3e
       -0.007263936 0.0951298 0.2215877 0.18478534
000270 bc ef 21 3e 04 16 e9 3e ab ce 53 3e 02 cf 14 3e
       0.15814108 0.4552461 0.20684306 0.14532092
000280 ff fc d4 3e 09 10 13 3e e9 09 4d bc 7b a0 0f bd
       0.4159927 0.14361586 -0.01251457 -0.035065155
000290 aa 12 ca 3d be 1e 40 3d e4 36 58 3d b4 96 7d 3d
       0.09866841 0.046904318 0.052786723 0.0619113
0002a0 1c 5b cc 3c dc d5 89 3c 9e a8 53 3d 26 7c 14 bf
       0.024945788 0.016825609 0.051674478 -0.58001935
0002b0 a7 aa 09 be 1c cb 38 3d 90 8a 01 bf 60 4a 71 be
       -0.13444005 0.045115575 -0.50602055 -0.23563528
0002c0 f5 ec 4e be c3 ea 2e bf af 04 93 be 7f 05 c5 bd
       -0.2020758 -0.6832697 -0.2871451 -0.09620189
0002d0 86 d0 05 bf 93 0f 96 be c1 62 83 bd b6 37 2b bf
       -0.52271307 -0.29308757 -0.0641532 -0.66881883
0002e0 fb 52 af bd a8 a3 ee 3d d3 78 d1 be f6 54 2d be
       -0.08560749 0.11652309 -0.40912494 -0.16926941
0002f0 47 98 29 3d 86 75 6c bf 8d aa 2a 3e 7e f2 75 bb
       0.04140499 -0.92366827 0.16666622 -0.003752857
000300 2b f6 46 bf 5e 75 87 be 2a 9f 2e be d1 3d 5f bf
       -0.7771937 -0.26456732 -0.17052904 -0.872037
000310 84 d0 8b be 88 39 b3 3d d5 89 ab be 3c 26 85 3e
       -0.27307522 0.087512076 -0.33503595 0.26005733
000320 a2 dd 5c be 23 6e 02 bf 2a 74 97 3e c3 e3 0a bd
       -0.21568921 -0.50949305 0.29580814 -0.033908617
000330 77 c4 20 bf d8 31 1e 3e d6 2e cc 3d d4 16 a4 bd
       -0.6279978 0.15448701 0.09969871 -0.080121666
000340 6e 6a 42 be cd 94 c8 3c 8a b4 ad bd 9a ad c8 bd
       -0.18985912 0.024485016 -0.08481701 -0.09798737
000350 66 21 fe bc a5 96 a2 bd f3 40 ae bd 66 82 47 bd
       -0.031021785 -0.079388894 -0.08508482 -0.048708342
000360 2c 76 a8 bd f9 68 f4 3d 6f 1d 18 3e ed 78 ab bc
       -0.082256645 0.119340844 0.14854978 -0.020931685
000370 2f 41 39 3e e7 11 0b 3e 13 2e 73 3d b0 8b 09 3d
       0.18091272 0.13581048 0.05937011 0.033580482
000380 76 ed 80 3d 87 e2 fc bc 3d 39 cb bb b0 1c e8 3b
       0.06295292 -0.030869735 -0.0062018917 0.007083498
000390 18 57 f9 3c 3e 43 20 3c 11 75 31 3d 06 b4 f9 bc
       0.030437037 0.009781657 0.043324534 -0.03048135
0003a0 e8 d3 56 3d 8e 14 2b 3d 9a a9 07 3e 1e b3 d9 3c
       0.052448183 0.04176765 0.13248292 0.026574668
0003b0 11 5a 68 bd 40 75 3b 3e fb c1 18 3e 10 93 3b 3d
       -0.05672652 0.18306446 0.14917748 0.045794547
0003c0 42 2e 32 3e 57 49 04 3e 12 d4 35 3d 77 5d 93 be
       0.17400458 0.12918602 0.0443917 -0.28782246
0003d0 0c 32 31 bd 51 83 6a 3e a6 ed 9f be 7a ef 91 bc
       -0.04326062 0.22901656 -0.31236 -0.017814387
0003e0 8b 39 52 3d 44 27 14 bf af da 24 be ae f1 6a 3e
       0.05132441 -0.57872415 -0.16099046 0.22943756
0003f0 b4 a7 43 bf 36 2f 19 be 38 85 c4 3c 60 db 31 bf
       -0.7642777 -0.14959416 0.023989305 -0.69475365

conv3.bias f4 [64]
000000 0a 4d 82 bd 32 a6 1d 3d 7d ac 89 bd 10 96 d9 3c
       -0.0636235 0.038488574 -0.06722353 0.026560813
000010 76 d6 3c 3d f6 e9 94 3d ce 89 ab 3d 67 d0 a1 3c
       0.046102963 0.07271187 0.083758935 0.019752694
000020 2b e1 7e bd 8f c5 97 3d c0 1d ae 3b 7e 74 4e 3d
       -0.062226456 0.07410728 0.005313605 0.050404064
000030 47 8c 0d 3d c1 4b a0 bd 4c f5 8d 3d 92 14 06 bd
       0.034557607 -0.07826949 0.06931552 -0.03273446
000040 2d a9 dc bc a4 0a 10 bd e3 ef 8f bc 4c c8 8c 3d
       -0.026936138 -0.035166398 -0.017570442 0.06874141
000050 17 6e 54 38 33 a3 50 bd ad c9 ad 3c e0 f3 8c bd
       5.0647268e-05 -0.05093689 0.02121433 -0.06882453
000060 f6 e6 a1 3d 8e 1a d8 bd 61 e6 dd bd 45 54 a6 bd
       0.079053804 -0.1055194 -0.10834957 -0.08121542
000070 30 25 8f bd 69 5c 14 3d 96 6e 8e 3d db 46 7d 3d
       -0.06989515 0.03622094 0.06954686 0.06183515
000080 9a 42 19 3b 00 81 a5 3c d8 65 af 3c b8 a8 e2 3d
       0.0023385645 0.020203114 0.021410868 0.11067337
000090 21 8b ec bb d7 9f 58 3d e2 22 56 3d db 39 3c bd
       -0.007218734 0.05288681 0.05227936 -0.045953613
0000a0 bf c7 8b 3d 65 da f2 3c e5 62 82 bd 92 34 b1 3c
       0.06825208 0.029645154 -0.06366519 0.021631513
0000b0 be 67 5d 3c d8 de 3c bd 7b 84 5a 3d e9 d5 9f bb
       0.013513504 -0.046110958 0.053349 -0.004877795
0000c0 8a 40 36 3c d2 37 1b 3b 43 54 18 3d e3 a0 82 3d
       0.011123786 0.0023684395 0.037189733 0.06378343
0000d0 5f a0 1e bd 1d 8b 77 3d 3d 65 12 bd c5 5e 03 3d
       -0.03872716 0.060435403 -0.03574108 0.0320728
0000e0 6b 91 10 3d f6 1f 86 3c ea d7 96 3c 4f 70 32 3d
       0.03529493 0.016372662 0.018413503 0.043564137
0000f0 fc 7d 3d bd 15 61 ed bc 17 c7 96 3d d1 c9 82 bd
       -0.046262726 -0.028976956 0.07362192 -0.0638615

output_layer.weight f4 [4, 64]
000000 b9 6a 42 3e aa d6 1e 3f d8 f0 2f 3e 96 44 94 3e
       0.18986024 0.620463 0.17181718 0.28958577
000010 e1 4f 20 3f 16 a6 11 3c fc 7c a9 3d 2c 37 a1 be
       0.62621886 0.008889696 0.08275792 -0.31487405
000020 d7 9e 81 3e 12 70 3c 3d 16 57 b8 3e 80 f5 22 3d
       0.25316498 0.046005316 0.3600394 0.03978491
000030 6d ba 48 3e 67 31 4f 3e 52 0c df be a3 27 45 3f
       0.19602366 0.20233689 -0.43564087 0.77013606
000040 12 82 98 3e b1 c6 ad 3d 45 6f f1 be f1 f4 6f be
       0.29786736 0.08485163 -0.47155204 -0.23433281
000050 77 de 53 3e 2c 95 97 3e 4d 99 30 bd 47 91 b3 bd
       0.20690332 0.29605997 -0.04311495 -0.08767944
000060 57 57 8d bd 86 2c 9a be 46 e7 f8 3e 17 f6 06 3e
       -0.069014244 -0.30112094 0.48613948 0.13179813
000070 8a 9a 17 bc 56 62 af be f8 a0 9e be ef 2c 0c 3e
       -0.009253154 -0.34254712 -0.30982184 0.13689016
000080 cd 8b 07 3e 2e fe 81 bd 25 2f aa 3e 9e 57 ec bd
       0.13236924 -0.06347309 0.33239093 -0.11540149
000090 dc 1b 93 bd 01 c6 70 bc 30 bf 44 3e 0e 94 81 be
       -0.07183048 -0.014695645 0.19213557 -0.2530827
0000a0 92 57 09 bf 44 19 0b bf 21 33 99 3e 4d a5 d4 be
       -0.53649247 -0.5433543 0.2992182 -0.41532364
0000b0 09 b3 5d 3e 07 5a 33 be d2 27 81 3e 5b e2 17 bf
       0.21650328 -0.17514811 0.25225693 -0.59329766
0000c0 d7 b2 43 3e bb be 5c 3e 88 b0 89 3d ab 63 4f 3d
       0.1911119 0.21557133 0.06723124 0.05063216
0000d0 d1 98 50 3f 26 a1 f1 3d e1 28 ae 3e 25 1f 15 be
       0.8148318 0.11798315 0.34015563 -0.14562662
0000e0 1e 10 28 3e 2d 4c ce be e1 bb 9d 3e 07 cc 66 3d
       0.16412398 -0.40292493 0.30807403 0.05634692
0000f0 bc 47 3e 3f 76 ab f9 3e 41 77 df 3d dc 2c 36 3f
       0.7432821 0.48763627 0.10911418 0.711622
000100 df 13 c8 be af e4 2e 3e 45 df bb 3e 72 c8 b3 3e
       -0.3907766 0.17079423 0.3669378 0.35113865
000110 b1 89 90 3e e3 20 77 3e fb 04 4f 3e dc 0b 54 be
       0.2823005 0.24133639 0.20216744 -0.20707649
000120 e1 29 20 3f de b4 6a 3e ea 4e bc 3e bb 67 7d 3e
       0.625639 0.22920558 0.36778957 0.24746601
000130 64 15 52 3e 2c 91 1b 3e 96 84 05 bf 11 5b 4a be
       0.20515972 0.15192097 -0.52155435 -0.19761302
000140 bd bb 58 bd e1 52 06 3f 6b 03 07 bf 17 c3 87 3b
       -0.052913416 0.52470213 -0.5273959 0.0041431296
000150 5f 76 bd 3d 17 d8 e8 bd 38 a9 97 be ba cf a5 bd
       0.09251093 -0.11369341 -0.2962129 -0.08096261
000160 cf 10 fb 3d 8b 12 75 3e b4 f7 69 3f 0c 4d 68 3f
       0.12259065 0.23932855 0.9139359 0.90742564
000170 7b fd 81 bd ce fe f9 be 40 ed be bd 2e f1 31 3e
       -0.06347176 -0.48827213 -0.093225956 0.17377159
000180 7f 60 7e 3e 41 9b 81 be bb 44 20 be 26 2c af be
       0.24841498 -0.25313762 -0.15651219 -0.3421337
000190 0f 93 a4 bd 23 40 18 3d 22 f6 35 3e 3c 81 8f be
       -0.08035862 0.03717054 0.17769673 -0.28028286
0001a0 78 fa 93 be a4 87 bc be 49 8c 5a 3e 5a ce 15 3c
       -0.2890203 -0.36822236 0.21342577 0.009143436
0001b0 fd c2 0a 3e b1 da 14 3f 84 3f 21 3e 76 b6 a7 bd
       0.13550945 0.58146197 0.15746886 -0.081890985
0001c0 6c d7 dd 3d c3 ee 6c 3e 17 9a ab 3e 24 e3 9c 3d
       0.10832104 0.23137955 0.33516 0.07660511
0001d0 e9 d3 70 3d 4c 38 f3 3d e4 7c 29 3d e2 c2 b5 be
       0.058795843 0.11875972 0.04137887 -0.35500246
0001e0 ec df 38 3e c0 72 09 bf 46 cf 76 be 5b e0 e6 be
       0.1805417 -0.5369072 -0.24102506 -0.45093045
0001f0 12 66 12 3f d0 b9 e8 3e 27 60 6a 3e 3c d4 14 3f
       0.57186997 0.45454264 0.22888242 0.58136344
000200 dc 7b 8f be dd 68 a3 3e 1a 18 b1 3e 9e 37 7c 3d
       -0.28024185 0.31915942 0.345887 0.06157648
000210 3d 1f 06 3f a7 d1 72 3e 85 28 15 3e 50 9b c7 3e
       0.52391416 0.23712789 0.14566238 0.38985682
000220 2a 77 70 3f 28 ae fd 3d 18 da 21 3f 1c bd 69 3e
       0.9393183 0.12386733 0.6322341 0.22826046
000230 31 49 47 3e aa 0c 4c 3e 1a f9 c8 be e8 9b 39 bd
       0.19461514 0.19926706 -0.3925255 -0.0453147
000240 cb 07 5f 3e 7f 94 a5 3e dd f9 a2 be 24 cc 9b be
       0.21780317 0.32339856 -0.31831256 -0.30429184
000250 a7 13 41 3e 13 86 1a 3e 10 a7 91 be d1 c4 61 bd
       0.18855153 0.15090208 -0.2844777 -0.05511934
000260 74 3e 98 3e c0 56 01 3b 3f ff 6f 3e 2d 13 82 3e
       0.29735148 0.0019735545 0.23437212 0.25405255
000270 2a b4 b9 bd 8d 73 0d bf b4 37 ce be e4 88 d5 3d
       -0.09067567 -0.5525444 -0.40276873 0.104265004
000280 2d fe 31 3e e9 44 bf be 4a 9e ed be 5c 9c eb 3d
       0.17382117 -0.37357262 -0.46409827 0.115044326
000290 ab ed ee bd bb 77 71 3e 1f 40 8f 3d c3 20 c2 3e
       -0.11666425 0.2358083 0.06994652 0.3791562
0002a0 f6 93 ee be 1b 9e 15 bf e7 7f 38 3e 84 1b 45 be
       -0.4659726 -0.58444375 0.18017541 -0.19248778
0002b0 0a 93 ac 3d f2 ef d6 3e 41 fc 62 3e d9 d5 ae be
       0.08426483 0.4197994 0.2216654 -0.34147528
0002c0 c8 2a 5f 3e 93 f7 37 3e ed 3b 24 3e 37 0f 5c 3e
       0.21793664 0.17965536 0.16038485 0.21490179
0002d0 25 30 83 3e 59 28 49 3e 34 bd 9a be 82 02 71 be
       0.2562267 0.19644298 -0.30222476 -0.23536113
0002e0 f7 06 82 3d 0c f8 ae be 7c 98 82 3e 03 77 41 be
       0.06348985 -0.3417362 0.2550696 -0.18893056
0002f0 a5 bf 1e 3f 0d 45 24 3f a9 2b e8 3d 5a 37 02 3f
       0.62011176 0.64167863 0.113364525 0.5086571
000300 1d e7 4c be e1 24 b3 3e 59 1e fc 3e 2e c5 87 3e
       -0.20010038 0.34989074 0.49241903 0.26517624
000310 42 8a aa 3d c7 ba 00 3d af c9 03 3e 2c 32 16 3f
       0.08327152 0.031428125 0.12869905 0.58670306
000320 6a e4 da 3d fe 53 ae 3d 16 3d b8 3e 96 e2 eb bd
       0.10688098 0.08512114 0.35984105 -0.11517827
000330 53 bb 43 3e 25 d2 15 3e 1b 3f 10 bf fe 9e 29 3f
       0.19114427 0.14630945 -0.5634629 0.6625823
000340 0c b7 9e 3e b4 4a a5 3e 2b 51 22 bf 74 b6 a6 3d
       0.3099903 0.32283556 -0.634051 0.08140269
000350 d1 a3 4f 3e 7c af 1d 3d 67 60 8e 3e bd 07 96 bd
       0.20277335 0.038497433 0.27807924 -0.07325695
000360 1b 71 dc be ee a9 f0 3e 47 f9 0b 3f 95 7f 1c 3f
       -0.43055043 0.47004646 0.5467724 0.61132175
000370 80 44 19 be d2 cb ee be c5 46 85 3e bc 74 20 3e
       -0.14967537 -0.46639878 0.26030555 0.1566953
000380 5e f4 a5 3d 75 fe 22 3e 03 06 0d 3e 2e a8 b9 be
       0.0810325 0.1591738 0.13771825 -0.36261123
000390 92 75 81 bd 6d b5 16 3e 27 e6 25 3e 4a 0c f7 be
       -0.06321253 0.14717646 0.16201077 -0.48251563
0003a0 5e 7a 02 bf 84 bf ca be bd 3e 87 3e 78 a7 0e 3e
       -0.5096797 -0.3959924 0.26415053 0.13931072
0003b0 d6 fd 5a 3e 7e f8 54 3c 5f 7d 71 3e 45 1f 03 bf
       0.21385893 0.012998698 0.23582982 -0.5121959
0003c0 10 45 de 3d c7 d8 56 3e 03 65 57 3e 12 37 a2 3d
       0.108530164 0.20981131 0.21034627 0.0792066
0003d0 36 3c 69 3e af ac 60 3e 07 38 fa 3d 18 61 a5 be
       0.22776875 0.21940874 0.122177176 -0.3230064
0003e0 50 ab 55 3d 5b 9a f1 be 33 1f 0e 3e 3a 2d 0e bd
       0.05216533 -0.47188076 0.13879089 -0.0347111
0003f0 66 51 28 3f e4 f1 65 3f 6f 9b 90 3d 37 4c 4c 3f
       0.65749204 0.8982222 0.070608966 0.79803795

output_layer.bias f4 [4]
000000 19 c9 f0 3d ad 70 ce bd 10 75 92 bc ec 04 ad 3d
       0.11757106 -0.10080085 -0.017878085 0.084482044
