data/models/20240311121412_episode_636_obs_T__comb_T__solo_F/model.pt (torch, 100091 bytes, 8 tensors)

conv1.weight f4 [16, 7, 3, 3]
00000000: 4d7e c63c 191d bb3c afeb 3ebd 235a febc
00000010: 8fcc 313c 0dd7 143d 296f 23bd f853 bcbe
00000020: 121e 50bd bafa ce3c a0b5 133a 25d9 27bc
00000030: 5332 3d3d 9c4d be3d 7458 973d f8e0 f6bc
00000040: ccf1 85be 0918 67bd a01f 96be 331f 30bd
00000050: f281 12be b9c2 d0bd a143 633e 4936 743d
00000060: 2e6a 58be ffa0 a63e dedc f53b 41c8 e23c
00000070: c88d 90be d1e6 d9bd 14bd 843d b7cc cb3b
00000080: 2ee8 163c ae8d 65bd e0db fcbe 3ca7 263c
00000090: 68d7 fb3c 531d 4d3e 9365 bf3c 45f4 053e
000000a0: b2f3 203e f342 083e c4bd 253e 980f e8bd
000000b0: 6eb3 293e ef09 b7bc 7639 3e3d 4329 3abd
000000c0: f119 e3bd e7d0 88be 6325 553d 7024 e4be
000000d0: 4eca 50be 9555 70be f8d8 f6bb bca2 4d3d
000000e0: b4c3 dcbc 8283 c2bd 9646 81be 8a47 933d
000000f0: e6bb debe 06bc 80be a33e 5cbe ea1f 70bc
00000100: c5a4 01bd 09d6 c8bd bf49 153c b6ef 03be
00000110: c21f 79bc 4654 0ebd fccf d4bc 0748 a6bd
00000120: cfc9 b6bc 312c 52bd 7ff4 cdbd 1618 003d
00000130: 9141 12be d9f6 afbc 626a ddbc bd83 21bd
00000140: a4a3 c1bd 403f 953d 829c 113d 02a2 91bb
00000150: 5c56 093e 161a 89bd 0f21 093d 9d66 b13d
00000160: 91e8 903d 901d 5a3d 642e dfbd 4166 cbbd
00000170: c086 17be 60f4 75bd 84b2 14be cad5 a7bd
00000180: 514f 943c 0189 c9bd 4d98 42bd 8828 8ebe
00000190: 29d4 00be bcb3 143f 3d0a 8ebe 42b8 fa3e
000001a0: 8861 183e 1d55 0cbf 4988 44bd 1e9e f83e
000001b0: a774 913d 3ccf 25bd 192c 83bd 1dc0 473d
000001c0: 08be e4bd 44bd 7b3b f7a9 4a3c 5094 423c
000001d0: 18cb 50bd e82a 423d d204 54bd 7a6a 86bd
000001e0: 2ab9 563d 1772 fdbd b691 8fb9 e88c 033c
000001f0: 1b9e 833b 30d8 28bd 5eb7 10be f3b1 8cbd
00000200: f3bb 683d a349 03be b5fe 9a3d d7fa 273d
00000210: 50c1 03be e991 7d3d 1ad5 e1bd f3ab 49be
00000220: 77b8 17bd 2b96 d5bb 9cea 24be ac3b efbc
00000230: 1bda 063d 823f 21be 2e8a 2d3d fe93 cfbd
00000240: bbc9 993d 3018 7a3e 153a 1f3e 09a9 f93d
00000250: 14b3 943e d7d0 0e3e 3eee 1f3d b679 5c3e
00000260: 06a4 6b3d 7226 f0be 9ab4 b13c f128 843e
00000270: a913 08bf e442 0dbe 0a29 0fbc f55a aebc
00000280: 3352 ef3d 7cc1 a2be 0198 be3e 4c8e 54be
00000290: 6a3f 3a3d 8cd7 323e 3fe2 ba3b ae83 a2be
000002a0: f664 79be 7de2 96be 639d 36be 49fe 123d
000002b0: 622c 7a3d 1089 cf3d 7218 633d 0fa0 923e
000002c0: 968d d53d 8397 063d 5f0b 3f3e 2e73 bbbc
000002d0: abff f23d 1ce5 1b3e 1c1d 223e 3158 fc3d
000002e0: c9e3 c23e a544 333e cba1 813d c533 9b3e
000002f0: e279 013d 0bd1 db3c 91d9 293d d6d9 02bd
00000300: cb3c a7bd 6f58 52bd e89b 9d3c 948e 9f3d
00000310: 59b8 cebd 5c9a 8f3c 9c8a 003d af92 193d
00000320: bd76 7dbd 1c7e a1bd 3ec7 c8bd 9e93 d53c
00000330: 04b5 623d bf59 babd bd32 6d3c 4d22 4f3e
00000340: 3949 0e3e 8291 cd3d 85d5 09be 3609 8d3e
00000350: 96ff c73d f184 553e 4611 97be fa8b fe3d
00000360: 63d0 78bd f5d0 1d3d 05ff 623c 6504 7dbe
00000370: 4a9c 113e 0734 893d 7045 96bd 0c18 fcbd
00000380: 1b8a 82bc e53f 6abe 36c9 f2bd ad3d 56bf
00000390: d036 8dbf 1c58 dcbe 2450 71be 2e9a a83d
000003a0: d3cb 173f 1cd8 32bf f939 1a3c ce1f 153d
000003b0: fc8e 9abd 93f0 6cbe 06c1 25bd 39ee 6f3b
000003c0: 1f56 143c 741c 0bbf 6cab a9bd 6cfb dbbc
000003d0: 4e2b 373d c47f 6abd a242 4cbe c7b0 e7bc
000003e0: 1f05 ca3c 2a89 db3d c6e7 0ebf 52d0 dcbd
000003f0: 6e31 5f3d db58 5b3d 461f e33d 3633 a73d
0.024230147 0.022841023 -0.046611484 -0.03104884 0.010851993 0.0363379 -0.039900932 -0.36782813
-0.050809927 0.02526604 0.0005634669 -0.010244642 0.04619057 0.092921466 0.07389918 -0.03013657
-0.2616104 -0.056419406 -0.29321003 -0.042998504 -0.14307383 -0.101933904 0.22193767 0.059622083
-0.21134254 0.32544705 0.007503136 0.02768338 -0.2823317 -0.10639728 0.06481376 0.0062194723
0.009210629 -0.05604332 -0.493865 0.010171708 0.030742362 0.20030718 0.023363864 0.13081463
0.15717962 0.13306789 0.16185671 -0.11331099 0.16572353 -0.022343604 0.046441518 -0.045449506
-0.11088932 -0.2672188 0.052037608 -0.4455905 -0.20389673 -0.23470147 -0.007533189 0.050204024
-0.026948787 -0.094977394 -0.25249165 0.07191379 -0.4350273 -0.2514345 -0.21508269 -0.014656046
-0.031651277 -0.09806449 0.009111821 -0.12884411 -0.015205326 -0.03474834 -0.02597808 -0.08119207
-0.022313027 -0.051311675 -0.100563996 0.03127297 -0.14282824 -0.02148001 -0.027028266 -0.039432276
-0.0945504 0.072874546 0.035549648 -0.0044443617 0.1341185 -0.066944286 0.033478793 0.0866215
0.070756085 0.05325085 -0.1089752 -0.09931613 -0.14797497 -0.060047507 -0.14521223 -0.08195074
0.018104227 -0.098405845 -0.047508527 -0.27765298 -0.12580933 0.5808675 -0.27742186 0.48968703
0.14880955 -0.5481737 -0.047981534 0.48558134 0.07102328 -0.040480837 -0.06404895 0.048767198
-0.11169058 0.0038412372 0.012369624 0.011876181 -0.050974935 0.0474042 -0.05176241 -0.065632775
0.05242268 -0.123752765 -0.0002738365 0.0080292 0.0040166504 -0.041221797 -0.14132449 -0.068698786
0.056819867 -0.12821059 0.07568113 0.041010704 -0.12866712 0.06190673 -0.11026974 -0.196945
-0.037041154 -0.0065181456 -0.16105121 -0.029203258 0.032922845 -0.15746883 0.042368107 -0.10135649
0.0750918 0.2442329 0.155495 0.12190444 0.29042876 0.13946854 0.039045565 0.21530804
0.05752947 -0.4690433 0.021692563 0.25812486 -0.53155 -0.13795048 -0.008737812 -0.021283606
0.116856 -0.31788242 0.37225345 -0.20757407 0.045470633 0.17465037 0.00570324 -0.3174109
-0.2435492 -0.29469672 -0.17833476 0.035887036 0.061077483 0.101335645 0.055443235 0.2863774
0.10427396 0.032859337 0.18656681 -0.02288207 0.11865171 0.15224117 0.15831417 0.12321509
0.3806441 0.17506655 0.06329688 0.30312935 0.031610377 0.026833078 0.041467253 -0.031946026
-0.08165892 -0.051353868 0.019239381 0.077908665 -0.10093755 0.017529659 0.03138219 0.037493404
-0.061880816 -0.078853816 -0.098036274 0.026071366 0.05534841 -0.09099149 0.014477429 0.20227928
0.1389512 0.10037519 -0.13460357 0.2754609 0.09765546 0.20851494 -0.29505366 0.12429042
-0.060745608 0.038529355 0.013854747 -0.24708708 0.14219776 0.066993766 -0.07337463 -0.12309274
-0.015934994 -0.22875936 -0.11854784 -0.8368786 -1.1032352 -0.43035972 -0.23565727 0.082325324
0.59295386 -0.69861007 0.009413236 0.036407284 -0.07546803 -0.23138647 -0.040467285 0.0036610498
0.009053736 -0.5434029 -0.08284649 -0.026853286 0.044719033 -0.057250753 -0.19947293 -0.028282536
0.024660645 0.10719521 -0.5582241 -0.107819214 0.0544905 0.053551536 0.11089949 0.081640646

conv1.bias f4 [16]
00000000: 42a0 013d c628 b9bc adfe ff3d 985c ad3d
00000010: 14f9 a43d a66b f5bc c328 b63b a059 763c
00000020: 47f8 273d 01c4 8abc e874 c8bd 27ab 43bc
00000030: f37f 353d 06d0 b3bd 3652 a53d f9be ea3c
0.031646974 -0.02260245 0.124997474 0.084649265 0.080553204 -0.029958557 0.0055590584 0.015036017
0.04100826 -0.016939165 -0.09787923 -0.011942661 0.044311475 -0.08779912 0.08072321 0.028655516

conv2.weight f4 [32, 16, 3, 3]
00000000: de7f 86bd d247 2abd bd9e 9d3d 0b25 f1bc
00000010: f4b3 05bd 0301 263d 5b25 a33c 3fe8 f43d
00000020: 7b88 c33d fea9 12be 0797 b6bc 62a9 d63d
00000030: 0017 1a3f 63de 7a3e c157 183f 72db 323e
00000040: 64d9 473f f780 723f ca36 2f3e eb2f 813e
00000050: d150 63bc cc43 543c 07e2 29be 7254 55be
00000060: f1c6 82bd 99a1 ddbe de49 fdbe f3f9 d03c
00000070: c852 153e 936e 7e3d f3f7 a93d 8ba5 db3d
00000080: 8265 023e 1cb2 093e 60ec 373e bdfb 663e
00000090: 1737 b13c a949 333d 075e 2a3d 0935 b53c
000000a0: f72d 303d 8e70 c1bd 1507 ba3b 09e0 8fbd
000000b0: 94f9 003c 350f 833d 50ff 073e 8330 c53d
000000c0: 594d 7dbb 910b 30bd 28c4 1e3d bd7b a9bd
000000d0: 4c0d d6bd 39ef de3d 6773 08bd dff2 86bc
000000e0: d6db 27bb e858 98bd 75b6 70bc e545 e5bd
000000f0: 85af d23c 048a 24be e588 d1bd 95d1 0cbd
00000100: a8e8 9abb 3428 a1bd f8d3 4abe abbf a73d
00000110: bb35 463d 0c91 7dbd 0d49 05bc 93f4 5e3d
00000120: bf2a 10be 61a9 70bd 1171 84bd dc6b 063d
00000130: 78ad 583d d0fe d13e 07ef c93e 86f7 e43e
00000140: 66eb 613f 120e 7c3d 3d3e ca3c 5553 1a3e
00000150: 6af0 a13e 39ac 763d 26cb 953e ca2f 94be
00000160: 8a10 d03e 0e00 983e 0dd3 4bbd 8ed6 e3bd
00000170: 4901 36be df6e 483d a3ef 3bbd 1abd c7bd
00000180: 734e c93d 40d3 a0bc 2d79 d0bd f181 053d
00000190: d43b c03d a92e 3e3e b8cd ad3c 787f 803e
000001a0: f210 b03d e4e6 9c3d dc67 543d c16a d73d
000001b0: 027c 693d bb81 af3c 9a87 443d 519b d2bc
000001c0: 50be b23d 839c 113c 41f0 c93d eaee e63d
000001d0: 1d01 67bd c8e7 20be 79ee 293d c0fd 833d
000001e0: 4212 233d 635f 24bd 77d7 803c 477a f13d
000001f0: e34d a13c 8b65 6a3d ce50 c0bb 226b febd
00000200: fa3a b2bd bc69 12be 076e d9bd 37a5 28be
00000210: eb4f 8abd edbd a2bd 59c6 e23d ed78 e4bd
00000220: 82d8 b1bd 83bf 8c3d c1c0 c5bb 6a9b 313d
00000230: d7a7 de3d 9717 aebd 3463 a6bd 34e4 6a3d
00000240: 802f 44bd 424c 9e3e df74 0a3f 5a8e 5c3d
00000250: 663f 063e 3429 b8bc 3200 b93e 9daf 1e3f
00000260: 7bc9 373f a546 3f3e f08e 2e3e 33a4 3a3c
00000270: cbcb 7e3d a54e 22be 8ea0 df3a 3dc2 0ebe
00000280: d063 bcbd 6ba2 893e 6130 843d 6431 2c3e
00000290: 8dd0 ae3e 05f3 54be e6d6 a03e 55d9 833e
000002a0: 9885 fc3d d29a 923e 4d93 f43e 4c37 dd3d
000002b0: 37dc 233d 6a05 2f3e a501 57be 698a 253d
000002c0: d818 463e ef07 64be 357f be3d 59d6 6b3e
000002d0: 0698 113e ea3a f8bc 0b15 9fbc 4b69 1e3d
000002e0: c71a b7bd 83db b23c 50ed cc3d b26b a23b
000002f0: af70 1cbc 071b 9e3d 1c7f 373d 2831 073e
00000300: 1ed0 d13d 1ed7 20bb d92c 303d c852 d33c
00000310: e1df 6dbd 3c23 813d e3d1 00bd 64b0 bcbd
00000320: e63d 59be 4bbe ddbc 76f6 98bd e75a e0bd
00000330: d911 51bd 20a4 19be 7a58 08be 3ae4 d1bd
00000340: 360e c1bc a43f 88bd 7f86 bd3d 22c5 673c
00000350: 824a b73d 46ac fdbe 3c3a 01bd c3a2 1b3d
00000360: 9173 cebc e4af 293e 1e06 943e 277b eabe
00000370: 8cab 1f3e 6843 e8bd f666 25bf bfe1 163d
00000380: 9de2 6abd 76b6 8ebd 1317 1c3c 62bc 0b3f
00000390: 4102 a1be e502 873d cc1b fe3e 8a73 a23e
000003a0: 0d4e ff3e 47af 4e3e fae9 0a3e 7b96 4e3d
000003b0: 6036 a33e bf53 733d 7c12 b63d b804 fa3e
000003c0: c4b5 fcbd cc6f 663e ec46 1f3f f73f 763c
000003d0: 449b ce3d 5c2f 7bbd e547 a13d 62c6 c03d
000003e0: adb1 6b3e dbd9 d23c a9a1 0d3e b4df 8c3e
000003f0: a8f7 f33b a5d3 7f3e 708f 683e 1b85 26be
-0.065673575 -0.0415724 0.076962925 -0.029436609 -0.03264232 0.04052831 0.019915273 0.1195836
0.09547516 -0.1432266 -0.022288812 0.10481526 0.60191345 0.24498896 0.595089 0.17466524
0.78066087 0.94728035 0.17110744 0.2523187 -0.013874249 0.012955617 -0.16590129 -0.20832995
-0.06385601 -0.43287352 -0.4947042 0.02550981 0.1458236 0.06211717 0.08299246 0.10724934
0.12734035 0.1344685 0.17961264 0.22556968 0.021632714 0.04377142 0.041593578 0.022120016
0.043012585 -0.09445296 0.005677114 -0.07025153 0.007872004 0.06399385 0.13280988 0.096283935
-0.003865084 -0.04297978 0.038761288 -0.08275554 -0.10451755 0.10885472 -0.03331318 -0.016473232
-0.002561321 -0.074388325 -0.014691939 -0.11194972 0.02571846 -0.16068274 -0.10231189 -0.03437956
-0.004727442 -0.07868996 -0.19807422 0.08190855 0.048391085 -0.061905906 -0.008135092 0.054432463
-0.14078806 -0.058755282 -0.06466878 0.032817706 0.052899808 0.4101472 0.39440176 0.44720095
0.88249815 0.061536856 0.02468788 0.15070851 0.31628734 0.060222838 0.29256552 -0.2894271
0.40637618 0.29687542 -0.04976182 -0.111249074 -0.17773928 0.04893386 -0.045882832 -0.09752865
0.09829416 -0.019631982 -0.101793624 0.032594625 0.09386411 0.18572487 0.021216258 0.2509725
0.08596982 0.076612264 0.05185686 0.105184086 0.05700303 0.021424165 0.047980882 -0.025708826
0.087277055 0.008887413 0.09860278 0.11276038 -0.056397546 -0.15713418 0.04148719 0.06444883
0.039812334 -0.04013003 0.015727742 0.11790901 0.01969046 0.057225745 -0.0058690077 -0.12422778
-0.08702655 -0.14298147 -0.10616689 -0.16469274 -0.067535244 -0.07946382 0.11072988 -0.11155877
-0.08683874 0.068724655 -0.006034941 0.043361105 0.10871857 -0.08500593 -0.0812439 0.057346538
-0.047896862 0.30917555 0.5408458 0.053846695 0.13110122 -0.022480585 0.36132962 0.61986715
0.7179181 0.18679293 0.17046714 0.011391687 0.06220607 -0.15850313 0.0017061399 -0.13941284
-0.09198725 0.26881728 0.0645454 0.16815716 0.34143487 -0.2079583 0.31413954 0.2575175
0.123301685 0.28633744 0.47768632 0.10801563 0.040004935 0.17091909 -0.20996721 0.0404152
0.19345415 -0.22268651 0.093016066 0.23030986 0.14218149 -0.03030153 -0.019419214 0.038674634
-0.08940654 0.021833187 0.10006201 0.004956686 -0.00954835 0.07719999 0.044798955 0.13202345
0.10244773 -0.0024542282 0.04301152 0.02579631 -0.058074836 0.063055485 -0.031450164 -0.09213331
-0.21215019 -0.027068278 -0.07468884 -0.10954838 -0.05104241 -0.15004015 -0.13315001 -0.10248609
-0.023566347 -0.066527635 0.09254169 0.014146121 0.08949758 -0.49545497 -0.031549677 0.03799702
-0.02520159 0.16571003 0.28910917 -0.45797083 0.15592784 -0.11340982 -0.6461023 0.036836382
-0.05734502 -0.069683954 0.009526986 0.54584324 -0.31447032 0.06592349 0.49630582 0.31728774
0.49864236 0.2018405 0.13565817 0.050436478 0.31877422 0.05940604 0.08890244 0.48831725
-0.123393565 0.22503585 0.62217593 0.015029899 0.10088208 -0.061324462 0.07875041 0.094128385
0.23016997 0.025738647 0.138312 0.27514422 0.0074452944 0.2498308 0.22710967 -0.16261713

conv2.bias f4 [32]
00000000: 2324 0dbd 23ab 10bd e9ce 89bd 2430 7cbd
00000010: cd0f 913d 9c64 a7bd 7066 0dbe c950 483d
00000020: a410 663d c2cb 17bc 9001 d2bd 2c0a d93c
00000030: adf9 bb3c 5cd9 4cba a9f8 c43d d7f3 863b
00000040: b831 04bd ec91 99bd a19c 88bd dc80 4abc
00000050: 8d37 dd3d adab 9b3d f631 f3b9 9572 d33b
00000060: 2081 9ebd 02ab 26bc 158c 0fbe 6238 9cba
00000070: 8549 933c 79b0 38bd 4b55 523d 5102 c6bd
-0.03445829 -0.03531946 -0.06728918 -0.061569348 0.07083092 -0.081734866 -0.13808608 0.048905168
0.056168213 -0.009264888 -0.10254204 0.026494108 0.022946203 -0.00078143715 0.09617741 0.0041184234
-0.032273978 -0.074985355 -0.066704996 -0.012359824 0.10801611 0.07601104 -0.00046385796 0.006452868
-0.077394724 -0.010172607 -0.14018281 -0.0011918659 0.017979393 -0.045090172 0.051350873 -0.096684106

conv3.weight f4 [64, 32, 3, 3]
00000000: 4938 f1bd 0edd 3dbe 551e c6bd e4f5 efbd
00000010: 5136 6d3d fbbd aabd 7d5d 11be 173d 5d3d
00000020: 6957 133c f42b 3dbd f6c1 c6bc 45ac 1f3c
00000030: 1d51 c43b 6d42 433d 3c94 103d 2162 ea3c
00000040: ec1b c13d aceb f8bc ed44 9dbc a165 2a3d
00000050: db21 d9bc b279 f8bc 231e 65bd 26d7 d0bd
00000060: 6948 31bd 7c96 ea3c af11 a7ba 51a1 d4bd
00000070: e30c 303e ebda d23d 4584 23be c075 ff3d
00000080: 7057 a3bd fde8 57be fe51 c0bd d45a fdbd
00000090: a0ed ee3c fc6c 9e3d ca22 3b3d 8465 ae3d
000000a0: dc67 0d3e 74c4 053e ef04 3cbd 1a96 a73d
000000b0: 4d7e 983d e4dd cdbc c34b cc3c b513 5abd
000000c0: 0144 1cbd 74fe 51bd c08c 703d 2b62 eebc
000000d0: 8beb bdbc 1331 c5bc c74a 193e 3e63 e23e
000000e0: 4290 5b3e 6b95 4e3c 0157 cf3e d9f9 6e3b
000000f0: 7471 0cbe 1e83 cb3c d268 03be 7e56 f4bc
00000100: 22db ce3d b98e 1dbd e6d2 723d 99ab 5c3d
00000110: 622c 343c d70c 673d 333c 783d 3c55 ca3d
00000120: 2110 b43c 2842 f03d a97d 3b3d 7511 823a
00000130: 7ba9 723c e271 993d d415 9bbc 1d26 b63d
00000140: dbe9 7a3c b9f1 bebd 4b3a 64be b277 7ebc
00000150: 8d05 a63d c26d a83e 44eb b23c 5ddf 0ebe
00000160: 1a93 533e 9c3b 323c e32b b73d 9933 723e
00000170: 910e 1d3e 49d0 423d a94b 9f3e 6519 de3d
00000180: 982b 1ebe db64 b3bd b613 6fbd 4033 52bd
00000190: ab6e d73d 3726 443d 6538 6f3d 1762 4d3e
000001a0: 2d6a 863c 3633 bfbd 9c64 823d 6c75 14bd
000001b0: 2d74 a53b 1838 863d e691 773d b565 203b
000001c0: 5e7b ac3b 6fc1 b33c d451 533d 7053 283d
000001d0: bc95 413d 5ab2 96bd d7e9 ac3d 41a0 94bb
000001e0: 5476 463d 8d18 d33e 93d8 8f3d d364 49be
000001f0: c704 683e b506 e8bd cf16 e93c 706f 7a3d
00000200: f808 7a3d 5cb2 f73d dce9 f13d 7987 8e3d
00000210: c973 12bd def2 723d 8f1e 15bc 4236 22bd
00000220: 01ce 5d3c 6348 1cbd dd9d 493d c04a 223d
00000230: cbc4 9c3b 5e41 3fbd b4b7 403b ed11 a6bc
00000240: bedf acbd 21a1 be3d 4183 1e3d 6ceb aebd
00000250: 0a10 703e 647c c53d 4a5a 4ebe 3d63 26bc
00000260: 3028 263d f5f2 0bbb 4689 06bd e4a7 cabc
00000270: 1fc9 cabc 538d 7f3d 2f3f 143d 5384 e63c
00000280: f6d1 923d 1e23 b4bc 36b9 743d 4ac0 683d
00000290: 2b93 cc3d 9692 f23d d3e7 8e3e c531 1a3e
000002a0: 12fa 4cbe 10bd 183e 21bf 33bd e5d4 043d
000002b0: 2da3 0b3c 131a 523d 99d3 323c 94cb ad3d
000002c0: 8dac cf3b b83d 423d 095a fd3d f62f 9c3c
000002d0: 9f1d b23d 4212 863d a5a2 0c3d fc96 e23c
000002e0: 495b 833d c989 943d 6ede ab3d ec7b 773d
000002f0: 15fc 40bd cce3 593d 01fe 7b3d 2fc5 4e3c
00000300: a885 253c 1a7c b23d 8ee9 013b 3958 2ebd
00000310: 3d83 923d 0cfd 6e3b 6c3d 353d 54c9 1a3e
00000320: 46ee 2a3e 6c56 dc3d ea49 7c3e 8e35 da3d
00000330: f406 36be c3f9 4bbd a70f 71bd d1cf a83c
00000340: 8e2c f03c 55ac 713d 3dfe 8c3d a1c7 473c
00000350: 4ec9 2c3d d493 8b3d 65a8 e53d bb50 2e3d
00000360: 3271 003e 61bf 563e 6be9 863e 29f0 683e
00000370: fd9e bc3e a060 873e b54b 45be b32f 0f3e
00000380: 7eae 84bd 532c 48be b94e 01be 148b 2bbd
00000390: 73a4 993d 4952 483e 95e4 2d3e a9b4 873e
000003a0: 2bca c03e 4bd6 583e a9cf c2bd 1771 41be
000003b0: 9d0e c83d e2c8 713e 1b71 e73e 4f4f f43d
000003c0: 4c59 2d3d 5c9f 083f 725d 023d 0cc6 30bd
000003d0: e2e4 0c3d 7527 66bb 21e8 073e 9af6 bd3e
000003e0: 4ffe 373e b8d7 65bd 953a 473e 24d7 d6bd
000003f0: fa19 233d 8b0d 7e3e 9146 c83c 5237 f43d
-0.11778314 -0.18541357 -0.09673754 -0.11716822 0.05791313 -0.08337017 -0.14195819 0.054013338
0.008993008 -0.046184495 -0.02426241 0.009745662 0.005991115 0.04767077 0.035297617 0.028611245
0.09429154 -0.030385815 -0.019197905 0.041600827 -0.026505401 -0.030331466 -0.055936944 -0.10197286
-0.043281946 0.02863621 -0.0012746359 -0.10382331 0.17192416 0.102956615 -0.15968426 0.12473631
-0.07975662 -0.21084972 -0.09390639 -0.1237084 0.029166043 0.07735631 0.045687474 0.08515456
0.1380915 0.13063222 -0.045903143 0.081829265 0.07445965 -0.02513022 0.02493847 -0.05324145
-0.03815079 -0.051268056 0.05872798 -0.029099545 -0.023183605 -0.024071252 0.14969932 0.4421634
0.21441749 0.012608866 0.40496066 0.0036464839 -0.13715154 0.024842795 -0.12832955 -0.029826399
0.1010039 -0.03846619 0.05928316 0.053874586 0.01099691 0.05640873 0.060604285 0.098795384
0.021980347 0.11731368 0.045774136 0.0009923415 0.014810915 0.074924245 -0.018931307 0.08893988
0.015314545 -0.09323449 -0.22287862 -0.015531467 0.081065275 0.3289624 0.021840699 -0.13952394
0.20661584 0.01087847 0.089439176 0.23652495 0.15337588 0.047561917 0.31112412 0.10844687
-0.15446317 -0.08759471 -0.058368407 -0.051318407 0.10519155 0.047888007 0.05840339 0.2005695
0.01640805 -0.093359396 0.06366846 -0.036244795 0.0050492496 0.06553668 0.060441874 0.0024474685
0.00526373 0.021942822 0.05159171 0.041095197 0.04726194 -0.073582366 0.08443039 -0.0045357053
0.04845269 0.41229668 0.0702373 -0.19667368 0.22658072 -0.11329404 0.028453259 0.06114143
0.06104371 0.12094566 0.11812183 0.06959433 -0.035754953 0.059313647 -0.009101524 -0.039602526
0.013537885 -0.03815497 0.049222816 0.03962207 0.0047842017 -0.0466932 0.002940637 -0.02027222
-0.08441113 0.09308077 0.038699392 -0.08540997 0.23443618 0.09642866 -0.2015163 -0.010155496
0.04056567 -0.002135453 -0.032845758 -0.02473826 -0.024754105 0.062390637 0.03619307 0.028139269
0.07168953 -0.021989401 0.059746943 0.056824006 0.099890076 0.11844365 0.27911243 0.15058048
-0.20017269 0.14915872 -0.043883447 0.032429595 0.008522791 0.051294398 0.010914707 0.08486095
0.0063377083 0.04742214 0.123706885 0.019065838 0.08697056 0.06546451 0.034334797 0.027659886
0.06413896 0.07252843 0.083920345 0.060420915 -0.047115404 0.05319576 0.061521534 0.012620254
0.010102667 0.08715077 0.0019823047 -0.042564604 0.07153938 0.0036466746 0.04424803 0.15115863
0.16692457 0.10758671 0.24637571 0.10654746 -0.1777609 -0.04979874 -0.058852818 0.020606907
0.02931812 0.05900224 0.068844296 0.012193591 0.042184167 0.06815305 0.11213759 0.04255746
0.1254318 0.20971443 0.2634996 0.22747864 0.36840048 0.26440907 -0.19267161 0.1398304
-0.06478594 -0.19548158 -0.12627687 -0.041880682 0.07502069 0.1956264 0.16981728 0.2650502
0.37654242 0.21175496 -0.09512264 -0.18890797 0.09768412 0.23611787 0.4520348 0.119291894
0.04232149 0.53368163 0.031827398 -0.043157622 0.034397967 -0.0035118733 0.13272144 0.37102205
0.17968105 -0.05611393 0.19455941 -0.104902536 0.039819695 0.24809854 0.024447711 0.11924614

conv3.bias f4 [64]
00000000: f35b 853d 4aa2 e0bc 436f 773b b175 95bd
00000010: 8966 b83c 83db 5f3d e917 433d 0397 9cbc
00000020: 2656 e93c a43f 803d 8c27 ef3d 91e6 953d
00000030: d5e4 fdbb 34e9 c8bc 6992 c9bd 9765 da3c
00000040: 4067 9e3d d36a 8fbc 05eb a23d 8804 493d
00000050: 07e3 503d bc05 c33d b90d 213d c13b 8e3d
00000060: 6c09 24bd 13a2 ea3c aa10 043e dbd1 d9bc
00000070: b631 b63d 2e86 a23b aad6 933d 88e5 933c
00000080: 258f 76bc e73c 933c 6878 9e3d d63f 57bc
00000090: 990e 813d d897 973d fc9c d43c a915 733d
000000a0: bffc 0e3d 6723 853d 953a 34bc c45b 9bbb
000000b0: 6ba7 2dbd 351d 173d 5451 8e3c 38e3 983d
000000c0: 9823 d63d 3ef1 a1bb 0d66 993d afc4 503d
000000d0: 1486 27bd 35dc 8a3d 8187 133d 572a 90ba
000000e0: 5683 75bd bcfd 293b fbf5 613d f11f 6b3c
000000f0: 54e9 b23c 30c0 613d f5f4 533d f3bf fc3c
0.065116785 -0.027421135 0.0037755526 -0.072978385 0.02250983 0.054652702 0.047630224 -0.019114977
0.028483462 0.062621385 0.11677465 0.07319368 -0.007748226 -0.024525262 -0.09842379 0.02665977
0.07734537 -0.017506992 0.07954983 0.049076587 0.05099776 0.09522578 0.039319728 0.06944991
-0.040048048 0.028641736 0.12896982 -0.026589325 0.088962 0.004959843 0.07218678 0.018053785
-0.015048777 0.017973376 0.077378094 -0.013137778 0.063016124 0.07402009 0.025953762 0.05934683
0.034909006 0.06500893 -0.011000295 -0.004741164 -0.04239599 0.03689309 0.017372765 0.074652135
0.10456008 -0.0049420884 0.07490168 0.050968822 -0.04089935 0.067802824 0.0360179 -0.0010998946
-0.059939705 0.002593859 0.055166226 0.014350877 0.021839775 0.055114925 0.05174728 0.030853247

output_layer.weight f4 [4, 64]
00000000: 2656 22be 6557 18be 5455 d13e ec6f 913d
00000010: 0eae e93e 363a 5abd 623f 113f fc35 d7be
00000020: 8735 3dbe 9dc4 52be 956e c93e 707f ecbd
00000030: 9403 07be 09bf 0c3c 8b01 073f d16d 70be
00000040: 3be3 063f 322e 38be 6be2 5cbd 5540 003f
00000050: b4e6 0a3f 653a 113f e7d7 1bbe bd95 1b3f
00000060: 7531 b3bd 3e0b c9bd 5546 c03e a9a8 ac3e
00000070: c731 103f 2f7a 11be 7595 b13e 777c f03e
00000080: 4de3 20be 0811 43be 4d08 57bd 9171 98be
00000090: 7037 18be 77d1 5d3f d89f a4bc c75b c7bd
000000a0: a741 0f3f 5eac 283f 3e69 4dbe 75c3 d4be
000000b0: eddf 9ebc e609 42be 44bd b9bc 32f1 0abd
000000c0: 9813 603e 2fac 8abd 55c3 7abd ce7a 32bd
000000d0: 123e b3bc 0a58 07be 0a62 803e 784c cf3d
000000e0: 47c9 c63c bbfa 21be 93c6 b33e 73e7 c83e
000000f0: 7f3c 1cbe 31a0 0d3f 4601 17be b0b5 803d
00000100: e10b cabd 7ed7 bebd 83b7 ce3e 729f 72bd
00000110: 766a b23e 5161 f9bd 8a34 1f3f 91eb e9be
00000120: 0c21 56bd 4dc5 bbbd 8536 c63e 99a0 bbbd
00000130: 92ff 0abe af94 54be f8f8 ff3e 4c4c e2bd
00000140: 9549 023f 617f 2ebd 80c9 8bbd 94aa 043f
00000150: d3aa e13e 53e5 053f 7f52 61be a4df 0e3f
00000160: b28c 3dbe 152e a8bd 30ea ba3e 4c4e 7f3e
00000170: a824 063f 9c20 4abe ee3e cd3e ad45 043f
00000180: f7bf 33be 92a0 32be 3ea9 1cbe 5622 ccbd
00000190: 1cc1 06be b08e 423f c9c9 dabd 2ad0 a2bd
000001a0: aa17 153f 0464 1a3f 3597 11be 83df f9be
000001b0: 732d 26be 3901 fdbd 84d7 e6bd e184 91bd
000001c0: 1b37 a13e 23ad 27be b7a2 cebd 478c 54be
000001d0: 0550 ebbd b58e 01be f957 833e a579 b93d
000001e0: c1ce bb3d 194b b2bd 3eb0 e43e ca6a c73e
000001f0: 09e1 79bd a8c0 013f 7960 37be 4270 113c
00000200: ed14 c1bd d028 04be ad84 d33e 427d 93bd
00000210: 31e5 c43e b555 48be 11ff 2f3f 8d4c 0ebf
00000220: 3247 cdbd a01b 50be d0da 083f 4bef 33be
00000230: 84aa a33c 2082 393c 38fc e43e 017c 4cbd
00000240: 713c bd3e e670 f5bd 72ad 4ebe 00dc fe3e
00000250: a616 093f 0b66 193f 358a 1bbd 9957 043f
00000260: 03e1 673b 89d9 d8bd 45ec c93e 2048 c43e
00000270: 1ffd 123f 16b2 51be b8fd da3e 742b 173f
00000280: f339 54be 82f4 bbbd 7236 2dbe 147d 97be
00000290: 62d5 c5bd d10e 403f 1348 0ebe 64fe 17be
000002a0: 0784 273f 212d 0e3f 4bed ebbd a4e8 9bbe
000002b0: 9ec5 a5bd 434a f9bc f3e7 34be 791d 1cbe
000002c0: 0d63 913e 5d2f 8ebd 698c 44be fbc7 94bd
000002d0: e20e e9bd 3acb 52be 43cd bc3e e640 55bd
000002e0: f7e0 b3bd ed01 d4bd d355 af3e 5aea b63e
000002f0: 21ce 2abe 292b fa3e f933 d5bd 2515 f13c
00000300: b97f 97bd 8691 edbd 3e99 c93e c7a2 883d
00000310: a1a2 9f3e a0df f1bd 1cd1 443f 9a5c 10bf
00000320: ccde 2ebe 5bfd b3bc 5c33 da3e c972 13be
00000330: f5f5 e6bd 22b2 34be 9c90 133f 3683 4cbe
00000340: 661e 133f 1fb7 33be 370c 47be e2ef 003f
00000350: b289 c53e 456c 073f 7fce 18be 6ebe f23e
00000360: 6d50 32be 4147 2cbe a38c 733e 160f bf3e
00000370: d0d5 183f 295a 0cbe f1b9 e53e aea5 083f
00000380: 89ad 2cbd e84f 1fbe 51fc e8bd 27bc c8bd
00000390: 8568 01be 012a 363f 7bd9 3cbe 80dd 03be
000003a0: f08a 183f 35a1 213f 6382 0bbe f9c8 b4be
000003b0: 8866 34be 1ef7 6cbe 5d44 d6bc 1ff0 643c
000003c0: 7a86 bd3e e28d babd 4e00 f53b 3dcc 20be
000003d0: 27cc debd c31f a2bd dfc7 c03e e8ef a53d
000003e0: 9a2f a43d c4e0 36be 966f bb3e 107f b13e
000003f0: 06dc 08be 5327 083f f749 7a3c b5d8 c3bd
-0.15853176 -0.14877088 0.40885413 0.071014255 0.45640606 -0.05327817 0.5673734 -0.42033374
-0.1847745 -0.20582815 0.3934218 -0.11547744 -0.13184959 0.008590468 0.5273673 -0.23479392
0.52690476 -0.17986372 -0.053926867 0.5009816 0.54258275 0.5672973 -0.15219079 0.6077536
-0.087496676 -0.098165974 0.3755366 0.33722427 0.56325954 -0.14206766 0.3468434 0.4696996
-0.15711708 -0.19049466 -0.05249815 -0.29774144 -0.14864898 0.86647743 -0.02009575 -0.09734302
0.5595955 0.6588801 -0.20059678 -0.41555372 -0.019393886 -0.18949088 -0.022673257 -0.033921428
0.21882474 -0.06771123 -0.06122144 -0.043574147 -0.021880183 -0.13217178 0.25074798 0.10122007
0.024265898 -0.15818302 0.35112438 0.39239082 -0.15257452 0.5532256 -0.1474658 0.06284654
-0.09865547 -0.093184456 0.40374383 -0.05923409 0.34846848 -0.12176765 0.62189543 -0.45687535
-0.05227761 -0.091684915 0.3871347 -0.09161491 -0.13574055 -0.20759843 0.49994636 -0.11049709
0.5089353 -0.042601947 -0.068255424 0.5182278 0.4407564 0.52303046 -0.22004126 0.5581
-0.18510702 -0.082119144 0.36506796 0.24932212 0.52399683 -0.19739002 0.40087074 0.51668817
-0.17553698 -0.17444065 -0.15298936 -0.099674866 -0.13159603 0.75998974 -0.10683019 -0.079498604
0.58239233 0.6030886 -0.14217837 -0.48803338 -0.16228275 -0.12353749 -0.11271575 -0.07105423
0.31487355 -0.1637464 -0.10089629 -0.20756637 -0.11489872 -0.12652095 0.25653055 0.09056405
0.091702946 -0.0870573 0.44665712 0.3894866 -0.061005626 0.50684595 -0.17907895 0.008876862
-0.094278194 -0.12906194 0.4131216 -0.072016254 0.3845611 -0.19563945 0.68748575 -0.5558556
-0.10023345 -0.20323038 0.5345888 -0.17571752 0.01997877 0.011322528 0.44723678 -0.049922947
0.36960176 -0.11984424 -0.20183352 0.49777222 0.53550184 0.5992133 -0.0379736 0.51696163
0.003538192 -0.105883665 0.39438072 0.38336277 0.5741748 -0.2047809 0.42771697 0.5905068
-0.20725231 -0.091774955 -0.169153 -0.29587615 -0.0965984 0.7502261 -0.13894682 -0.14843136
0.6543583 0.5553761 -0.115198694 -0.30450928 -0.08094333 -0.030430919 -0.17666607 -0.15245618
0.28395882 -0.069426276 -0.19194187 -0.07264706 -0.11379792 -0.20585337 0.36875352 -0.052063845
-0.08783143 -0.1035193 0.34245166 0.3572567 -0.16680194 0.48861054 -0.104103036 0.029429028
-0.07397408 -0.11600022 0.39374727 0.06671672 0.31178764 -0.11810231 0.76881576 -0.563913
-0.17077178 -0.021971395 0.4261731 -0.14399256 -0.11277381 -0.17646077 0.5764253 -0.19971928
0.5746826 -0.17550324 -0.19438253 0.5036603 0.38581616 0.5289958 -0.14922522 0.4741091
-0.17413493 -0.16824056 0.23784117 0.37316197 0.5970125 -0.13706268 0.44868425 0.5337781
-0.042157684 -0.15557826 -0.113762505 -0.09801512 -0.12637527 0.7115784 -0.18442337 -0.12877464
0.59587 0.6313661 -0.13623957 -0.3530958 -0.17617238 -0.23141143 -0.026155645 0.013973265
0.3701666 -0.09109093 0.007476843 -0.1570291 -0.10878783 -0.07916214 0.3765249 0.08102399
0.08016892 -0.17859179 0.3660857 0.34667253 -0.13365182 0.53185004 0.015276424 -0.09562818

output_layer.bias f4 [4]
00000000: fad1 cdbd 142a f03d 1d40 e73c 0055 aabd
-0.100498155 0.11726776 0.028228814 -0.08316994
